{"class_name": "Model", "keras_version": "2.3.1", "config": {"layers": [{"class_name": "InputLayer", "config": {"dtype": "float32", "batch_input_shape": [null, 4096, 1], "name": "input_1", "sparse": false}, "inbound_nodes": [], "name": "input_1"}, {"class_name": "Conv1D", "config": {"kernel_initializer": {"class_name": "VarianceScaling", "config": {"distribution": "uniform", "scale": 1.0, "seed": null, "mode": "fan_avg"}}, "name": "conv1d_1", "kernel_constraint": null, "bias_regularizer": null, "bias_constraint": null, "dtype": "float32", "activation": "sigmoid", "trainable": true, "data_format": "channels_last", "filters": 32, "padding": "same", "strides": [1], "dilation_rate": [1], "kernel_regularizer": null, "bias_initializer": {"class_name": "Zeros", "config": {}}, "use_bias": true, "activity_regularizer": null, "kernel_size": [2]}, "inbound_nodes": [[["input_1", 0, 0, {}]]], "name": "conv1d_1"}, {"class_name": "Conv1D", "config": {"kernel_initializer": {"class_name": "VarianceScaling", "config": {"distribution": "uniform", "scale": 1.0, "seed": null, "mode": "fan_avg"}}, "name": "conv1d_2", "kernel_constraint": null, "bias_regularizer": null, "bias_constraint": null, "dtype": "float32", "activation": "tanh", "trainable": true, "data_format": "channels_last", "filters": 32, "padding": "same", "strides": [1], "dilation_rate": [1], "kernel_regularizer": null, "bias_initializer": {"class_name": "Zeros", "config": {}}, "use_bias": true, "activity_regularizer": null, "kernel_size": [2]}, "inbound_nodes": [[["input_1", 0, 0, {}]]], "name": "conv1d_2"}, {"class_name": "Multiply", "config": {"dtype": "float32", "trainable": true, "name": "multiply_1"}, "inbound_nodes": [[["conv1d_1", 0, 0, {}], ["conv1d_2", 0, 0, {}]]], "name": "multiply_1"}, {"class_name": "Conv1D", "config": {"kernel_initializer": {"class_name": "VarianceScaling", "config": {"distribution": "uniform", "scale": 1.0, "seed": null, "mode": "fan_avg"}}, "name": "conv1d_3", "kernel_constraint": null, "bias_regularizer": null, "bias_constraint": null, "dtype": "float32", "activation": "linear", "trainable": true, "data_format": "channels_last", "filters": 128, "padding": "same", "strides": [1], "dilation_rate": [1], "kernel_regularizer": null, "bias_initializer": {"class_name": "Zeros", "config": {}}, "use_bias": true, "activity_regularizer": null, "kernel_size": [1]}, "inbound_nodes": [[["multiply_1", 0, 0, {}]]], "name": "conv1d_3"}, {"class_name": "Add", "config": {"dtype": "float32", "trainable": true, "name": "add_1"}, "inbound_nodes": [[["input_1", 0, 0, {}], ["conv1d_3", 0, 0, {}]]], "name": "add_1"}, {"class_name": "Conv1D", "config": {"kernel_initializer": {"class_name": "VarianceScaling", "config": {"distribution": "uniform", "scale": 1.0, "seed": null, "mode": "fan_avg"}}, "name": "conv1d_4", "kernel_constraint": null, "bias_regularizer": null, "bias_constraint": null, "dtype": "float32", "activation": "sigmoid", "trainable": true, "data_format": "channels_last", "filters": 32, "padding": "same", "strides": [1], "dilation_rate": [1], "kernel_regularizer": null, "bias_initializer": {"class_name": "Zeros", "config": {}}, "use_bias": true, "activity_regularizer": null, "kernel_size": [2]}, "inbound_nodes": [[["add_1", 0, 0, {}]]], "name": "conv1d_4"}, {"class_name": "Conv1D", "config": {"kernel_initializer": {"class_name": "VarianceScaling", "config": {"distribution": "uniform", "scale": 1.0, "seed": null, "mode": "fan_avg"}}, "name": "conv1d_5", "kernel_constraint": null, "bias_regularizer": null, "bias_constraint": null, "dtype": "float32", "activation": "tanh", "trainable": true, "data_format": "channels_last", "filters": 32, "padding": "same", "strides": [1], "dilation_rate": [1], "kernel_regularizer": null, "bias_initializer": {"class_name": "Zeros", "config": {}}, "use_bias": true, "activity_regularizer": null, "kernel_size": [2]}, "inbound_nodes": [[["add_1", 0, 0, {}]]], "name": "conv1d_5"}, {"class_name": "Multiply", "config": {"dtype": "float32", "trainable": true, "name": "multiply_2"}, "inbound_nodes": [[["conv1d_4", 0, 0, {}], ["conv1d_5", 0, 0, {}]]], "name": "multiply_2"}, {"class_name": "Conv1D", "config": {"kernel_initializer": {"class_name": "VarianceScaling", "config": {"distribution": "uniform", "scale": 1.0, "seed": null, "mode": "fan_avg"}}, "name": "conv1d_6", "kernel_constraint": null, "bias_regularizer": null, "bias_constraint": null, "dtype": "float32", "activation": "linear", "trainable": true, "data_format": "channels_last", "filters": 128, "padding": "same", "strides": [1], "dilation_rate": [1], "kernel_regularizer": null, "bias_initializer": {"class_name": "Zeros", "config": {}}, "use_bias": true, "activity_regularizer": null, "kernel_size": [1]}, "inbound_nodes": [[["multiply_2", 0, 0, {}]]], "name": "conv1d_6"}, {"class_name": "Add", "config": {"dtype": "float32", "trainable": true, "name": "add_2"}, "inbound_nodes": [[["add_1", 0, 0, {}], ["conv1d_6", 0, 0, {}]]], "name": "add_2"}, {"class_name": "Conv1D", "config": {"kernel_initializer": {"class_name": "VarianceScaling", "config": {"distribution": "uniform", "scale": 1.0, "seed": null, "mode": "fan_avg"}}, "name": "conv1d_7", "kernel_constraint": null, "bias_regularizer": null, "bias_constraint": null, "dtype": "float32", "activation": "sigmoid", "trainable": true, "data_format": "channels_last", "filters": 32, "padding": "same", "strides": [1], "dilation_rate": [1], "kernel_regularizer": null, "bias_initializer": {"class_name": "Zeros", "config": {}}, "use_bias": true, "activity_regularizer": null, "kernel_size": [2]}, "inbound_nodes": [[["add_2", 0, 0, {}]]], "name": "conv1d_7"}, {"class_name": "Conv1D", "config": {"kernel_initializer": {"class_name": "VarianceScaling", "config": {"distribution": "uniform", "scale": 1.0, "seed": null, "mode": "fan_avg"}}, "name": "conv1d_8", "kernel_constraint": null, "bias_regularizer": null, "bias_constraint": null, "dtype": "float32", "activation": "tanh", "trainable": true, "data_format": "channels_last", "filters": 32, "padding": "same", "strides": [1], "dilation_rate": [1], "kernel_regularizer": null, "bias_initializer": {"class_name": "Zeros", "config": {}}, "use_bias": true, "activity_regularizer": null, "kernel_size": [2]}, "inbound_nodes": [[["add_2", 0, 0, {}]]], "name": "conv1d_8"}, {"class_name": "Multiply", "config": {"dtype": "float32", "trainable": true, "name": "multiply_3"}, "inbound_nodes": [[["conv1d_7", 0, 0, {}], ["conv1d_8", 0, 0, {}]]], "name": "multiply_3"}, {"class_name": "Conv1D", "config": {"kernel_initializer": {"class_name": "VarianceScaling", "config": {"distribution": "uniform", "scale": 1.0, "seed": null, "mode": "fan_avg"}}, "name": "conv1d_9", "kernel_constraint": null, "bias_regularizer": null, "bias_constraint": null, "dtype": "float32", "activation": "linear", "trainable": true, "data_format": "channels_last", "filters": 128, "padding": "same", "strides": [1], "dilation_rate": [1], "kernel_regularizer": null, "bias_initializer": {"class_name": "Zeros", "config": {}}, "use_bias": true, "activity_regularizer": null, "kernel_size": [1]}, "inbound_nodes": [[["multiply_3", 0, 0, {}]]], "name": "conv1d_9"}, {"class_name": "Add", "config": {"dtype": "float32", "trainable": true, "name": "add_3"}, "inbound_nodes": [[["add_2", 0, 0, {}], ["conv1d_9", 0, 0, {}]]], "name": "add_3"}, {"class_name": "Conv1D", "config": {"kernel_initializer": {"class_name": "VarianceScaling", "config": {"distribution": "uniform", "scale": 1.0, "seed": null, "mode": "fan_avg"}}, "name": "conv1d_10", "kernel_constraint": null, "bias_regularizer": null, "bias_constraint": null, "dtype": "float32", "activation": "sigmoid", "trainable": true, "data_format": "channels_last", "filters": 32, "padding": "same", "strides": [1], "dilation_rate": [1], "kernel_regularizer": null, "bias_initializer": {"class_name": "Zeros", "config": {}}, "use_bias": true, "activity_regularizer": null, "kernel_size": [2]}, "inbound_nodes": [[["add_3", 0, 0, {}]]], "name": "conv1d_10"}, {"class_name": "Conv1D", "config": {"kernel_initializer": {"class_name": "VarianceScaling", "config": {"distribution": "uniform", "scale": 1.0, "seed": null, "mode": "fan_avg"}}, "name": "conv1d_11", "kernel_constraint": null, "bias_regularizer": null, "bias_constraint": null, "dtype": "float32", "activation": "tanh", "trainable": true, "data_format": "channels_last", "filters": 32, "padding": "same", "strides": [1], "dilation_rate": [1], "kernel_regularizer": null, "bias_initializer": {"class_name": "Zeros", "config": {}}, "use_bias": true, "activity_regularizer": null, "kernel_size": [2]}, "inbound_nodes": [[["add_3", 0, 0, {}]]], "name": "conv1d_11"}, {"class_name": "Multiply", "config": {"dtype": "float32", "trainable": true, "name": "multiply_4"}, "inbound_nodes": [[["conv1d_10", 0, 0, {}], ["conv1d_11", 0, 0, {}]]], "name": "multiply_4"}, {"class_name": "Conv1D", "config": {"kernel_initializer": {"class_name": "VarianceScaling", "config": {"distribution": "uniform", "scale": 1.0, "seed": null, "mode": "fan_avg"}}, "name": "conv1d_12", "kernel_constraint": null, "bias_regularizer": null, "bias_constraint": null, "dtype": "float32", "activation": "linear", "trainable": true, "data_format": "channels_last", "filters": 128, "padding": "same", "strides": [1], "dilation_rate": [1], "kernel_regularizer": null, "bias_initializer": {"class_name": "Zeros", "config": {}}, "use_bias": true, "activity_regularizer": null, "kernel_size": [1]}, "inbound_nodes": [[["multiply_4", 0, 0, {}]]], "name": "conv1d_12"}, {"class_name": "Add", "config": {"dtype": "float32", "trainable": true, "name": "add_4"}, "inbound_nodes": [[["add_3", 0, 0, {}], ["conv1d_12", 0, 0, {}]]], "name": "add_4"}, {"class_name": "Conv1D", "config": {"kernel_initializer": {"class_name": "VarianceScaling", "config": {"distribution": "uniform", "scale": 1.0, "seed": null, "mode": "fan_avg"}}, "name": "conv1d_13", "kernel_constraint": null, "bias_regularizer": null, "bias_constraint": null, "dtype": "float32", "activation": "sigmoid", "trainable": true, "data_format": "channels_last", "filters": 32, "padding": "same", "strides": [1], "dilation_rate": [1], "kernel_regularizer": null, "bias_initializer": {"class_name": "Zeros", "config": {}}, "use_bias": true, "activity_regularizer": null, "kernel_size": [2]}, "inbound_nodes": [[["add_4", 0, 0, {}]]], "name": "conv1d_13"}, {"class_name": "Conv1D", "config": {"kernel_initializer": {"class_name": "VarianceScaling", "config": {"distribution": "uniform", "scale": 1.0, "seed": null, "mode": "fan_avg"}}, "name": "conv1d_14", "kernel_constraint": null, "bias_regularizer": null, "bias_constraint": null, "dtype": "float32", "activation": "tanh", "trainable": true, "data_format": "channels_last", "filters": 32, "padding": "same", "strides": [1], "dilation_rate": [1], "kernel_regularizer": null, "bias_initializer": {"class_name": "Zeros", "config": {}}, "use_bias": true, "activity_regularizer": null, "kernel_size": [2]}, "inbound_nodes": [[["add_4", 0, 0, {}]]], "name": "conv1d_14"}, {"class_name": "Multiply", "config": {"dtype": "float32", "trainable": true, "name": "multiply_5"}, "inbound_nodes": [[["conv1d_13", 0, 0, {}], ["conv1d_14", 0, 0, {}]]], "name": "multiply_5"}, {"class_name": "Conv1D", "config": {"kernel_initializer": {"class_name": "VarianceScaling", "config": {"distribution": "uniform", "scale": 1.0, "seed": null, "mode": "fan_avg"}}, "name": "conv1d_15", "kernel_constraint": null, "bias_regularizer": null, "bias_constraint": null, "dtype": "float32", "activation": "linear", "trainable": true, "data_format": "channels_last", "filters": 128, "padding": "same", "strides": [1], "dilation_rate": [1], "kernel_regularizer": null, "bias_initializer": {"class_name": "Zeros", "config": {}}, "use_bias": true, "activity_regularizer": null, "kernel_size": [1]}, "inbound_nodes": [[["multiply_5", 0, 0, {}]]], "name": "conv1d_15"}, {"class_name": "Add", "config": {"dtype": "float32", "trainable": true, "name": "add_5"}, "inbound_nodes": [[["add_4", 0, 0, {}], ["conv1d_15", 0, 0, {}]]], "name": "add_5"}, {"class_name": "Conv1D", "config": {"kernel_initializer": {"class_name": "VarianceScaling", "config": {"distribution": "uniform", "scale": 1.0, "seed": null, "mode": "fan_avg"}}, "name": "conv1d_16", "kernel_constraint": null, "bias_regularizer": null, "bias_constraint": null, "dtype": "float32", "activation": "sigmoid", "trainable": true, "data_format": "channels_last", "filters": 32, "padding": "same", "strides": [1], "dilation_rate": [1], "kernel_regularizer": null, "bias_initializer": {"class_name": "Zeros", "config": {}}, "use_bias": true, "activity_regularizer": null, "kernel_size": [2]}, "inbound_nodes": [[["add_5", 0, 0, {}]]], "name": "conv1d_16"}, {"class_name": "Conv1D", "config": {"kernel_initializer": {"class_name": "VarianceScaling", "config": {"distribution": "uniform", "scale": 1.0, "seed": null, "mode": "fan_avg"}}, "name": "conv1d_17", "kernel_constraint": null, "bias_regularizer": null, "bias_constraint": null, "dtype": "float32", "activation": "tanh", "trainable": true, "data_format": "channels_last", "filters": 32, "padding": "same", "strides": [1], "dilation_rate": [1], "kernel_regularizer": null, "bias_initializer": {"class_name": "Zeros", "config": {}}, "use_bias": true, "activity_regularizer": null, "kernel_size": [2]}, "inbound_nodes": [[["add_5", 0, 0, {}]]], "name": "conv1d_17"}, {"class_name": "Multiply", "config": {"dtype": "float32", "trainable": true, "name": "multiply_6"}, "inbound_nodes": [[["conv1d_16", 0, 0, {}], ["conv1d_17", 0, 0, {}]]], "name": "multiply_6"}, {"class_name": "Conv1D", "config": {"kernel_initializer": {"class_name": "VarianceScaling", "config": {"distribution": "uniform", "scale": 1.0, "seed": null, "mode": "fan_avg"}}, "name": "conv1d_18", "kernel_constraint": null, "bias_regularizer": null, "bias_constraint": null, "dtype": "float32", "activation": "linear", "trainable": true, "data_format": "channels_last", "filters": 128, "padding": "same", "strides": [1], "dilation_rate": [1], "kernel_regularizer": null, "bias_initializer": {"class_name": "Zeros", "config": {}}, "use_bias": true, "activity_regularizer": null, "kernel_size": [1]}, "inbound_nodes": [[["multiply_6", 0, 0, {}]]], "name": "conv1d_18"}, {"class_name": "Add", "config": {"dtype": "float32", "trainable": true, "name": "add_6"}, "inbound_nodes": [[["add_5", 0, 0, {}], ["conv1d_18", 0, 0, {}]]], "name": "add_6"}, {"class_name": "Conv1D", "config": {"kernel_initializer": {"class_name": "VarianceScaling", "config": {"distribution": "uniform", "scale": 1.0, "seed": null, "mode": "fan_avg"}}, "name": "conv1d_19", "kernel_constraint": null, "bias_regularizer": null, "bias_constraint": null, "dtype": "float32", "activation": "sigmoid", "trainable": true, "data_format": "channels_last", "filters": 32, "padding": "same", "strides": [1], "dilation_rate": [1], "kernel_regularizer": null, "bias_initializer": {"class_name": "Zeros", "config": {}}, "use_bias": true, "activity_regularizer": null, "kernel_size": [2]}, "inbound_nodes": [[["add_6", 0, 0, {}]]], "name": "conv1d_19"}, {"class_name": "Conv1D", "config": {"kernel_initializer": {"class_name": "VarianceScaling", "config": {"distribution": "uniform", "scale": 1.0, "seed": null, "mode": "fan_avg"}}, "name": "conv1d_20", "kernel_constraint": null, "bias_regularizer": null, "bias_constraint": null, "dtype": "float32", "activation": "tanh", "trainable": true, "data_format": "channels_last", "filters": 32, "padding": "same", "strides": [1], "dilation_rate": [1], "kernel_regularizer": null, "bias_initializer": {"class_name": "Zeros", "config": {}}, "use_bias": true, "activity_regularizer": null, "kernel_size": [2]}, "inbound_nodes": [[["add_6", 0, 0, {}]]], "name": "conv1d_20"}, {"class_name": "Multiply", "config": {"dtype": "float32", "trainable": true, "name": "multiply_7"}, "inbound_nodes": [[["conv1d_19", 0, 0, {}], ["conv1d_20", 0, 0, {}]]], "name": "multiply_7"}, {"class_name": "Conv1D", "config": {"kernel_initializer": {"class_name": "VarianceScaling", "config": {"distribution": "uniform", "scale": 1.0, "seed": null, "mode": "fan_avg"}}, "name": "conv1d_21", "kernel_constraint": null, "bias_regularizer": null, "bias_constraint": null, "dtype": "float32", "activation": "linear", "trainable": true, "data_format": "channels_last", "filters": 128, "padding": "same", "strides": [1], "dilation_rate": [1], "kernel_regularizer": null, "bias_initializer": {"class_name": "Zeros", "config": {}}, "use_bias": true, "activity_regularizer": null, "kernel_size": [1]}, "inbound_nodes": [[["multiply_7", 0, 0, {}]]], "name": "conv1d_21"}, {"class_name": "Add", "config": {"dtype": "float32", "trainable": true, "name": "add_7"}, "inbound_nodes": [[["add_6", 0, 0, {}], ["conv1d_21", 0, 0, {}]]], "name": "add_7"}, {"class_name": "Conv1D", "config": {"kernel_initializer": {"class_name": "VarianceScaling", "config": {"distribution": "uniform", "scale": 1.0, "seed": null, "mode": "fan_avg"}}, "name": "conv1d_22", "kernel_constraint": null, "bias_regularizer": null, "bias_constraint": null, "dtype": "float32", "activation": "sigmoid", "trainable": true, "data_format": "channels_last", "filters": 32, "padding": "same", "strides": [1], "dilation_rate": [1], "kernel_regularizer": null, "bias_initializer": {"class_name": "Zeros", "config": {}}, "use_bias": true, "activity_regularizer": null, "kernel_size": [2]}, "inbound_nodes": [[["add_7", 0, 0, {}]]], "name": "conv1d_22"}, {"class_name": "Conv1D", "config": {"kernel_initializer": {"class_name": "VarianceScaling", "config": {"distribution": "uniform", "scale": 1.0, "seed": null, "mode": "fan_avg"}}, "name": "conv1d_23", "kernel_constraint": null, "bias_regularizer": null, "bias_constraint": null, "dtype": "float32", "activation": "tanh", "trainable": true, "data_format": "channels_last", "filters": 32, "padding": "same", "strides": [1], "dilation_rate": [1], "kernel_regularizer": null, "bias_initializer": {"class_name": "Zeros", "config": {}}, "use_bias": true, "activity_regularizer": null, "kernel_size": [2]}, "inbound_nodes": [[["add_7", 0, 0, {}]]], "name": "conv1d_23"}, {"class_name": "Multiply", "config": {"dtype": "float32", "trainable": true, "name": "multiply_8"}, "inbound_nodes": [[["conv1d_22", 0, 0, {}], ["conv1d_23", 0, 0, {}]]], "name": "multiply_8"}, {"class_name": "Conv1D", "config": {"kernel_initializer": {"class_name": "VarianceScaling", "config": {"distribution": "uniform", "scale": 1.0, "seed": null, "mode": "fan_avg"}}, "name": "conv1d_24", "kernel_constraint": null, "bias_regularizer": null, "bias_constraint": null, "dtype": "float32", "activation": "linear", "trainable": true, "data_format": "channels_last", "filters": 128, "padding": "same", "strides": [1], "dilation_rate": [1], "kernel_regularizer": null, "bias_initializer": {"class_name": "Zeros", "config": {}}, "use_bias": true, "activity_regularizer": null, "kernel_size": [1]}, "inbound_nodes": [[["multiply_8", 0, 0, {}]]], "name": "conv1d_24"}, {"class_name": "Add", "config": {"dtype": "float32", "trainable": true, "name": "add_8"}, "inbound_nodes": [[["add_7", 0, 0, {}], ["conv1d_24", 0, 0, {}]]], "name": "add_8"}, {"class_name": "Conv1D", "config": {"kernel_initializer": {"class_name": "VarianceScaling", "config": {"distribution": "uniform", "scale": 1.0, "seed": null, "mode": "fan_avg"}}, "name": "conv1d_25", "kernel_constraint": null, "bias_regularizer": null, "bias_constraint": null, "dtype": "float32", "activation": "sigmoid", "trainable": true, "data_format": "channels_last", "filters": 32, "padding": "same", "strides": [1], "dilation_rate": [1], "kernel_regularizer": null, "bias_initializer": {"class_name": "Zeros", "config": {}}, "use_bias": true, "activity_regularizer": null, "kernel_size": [2]}, "inbound_nodes": [[["add_8", 0, 0, {}]]], "name": "conv1d_25"}, {"class_name": "Conv1D", "config": {"kernel_initializer": {"class_name": "VarianceScaling", "config": {"distribution": "uniform", "scale": 1.0, "seed": null, "mode": "fan_avg"}}, "name": "conv1d_26", "kernel_constraint": null, "bias_regularizer": null, "bias_constraint": null, "dtype": "float32", "activation": "tanh", "trainable": true, "data_format": "channels_last", "filters": 32, "padding": "same", "strides": [1], "dilation_rate": [1], "kernel_regularizer": null, "bias_initializer": {"class_name": "Zeros", "config": {}}, "use_bias": true, "activity_regularizer": null, "kernel_size": [2]}, "inbound_nodes": [[["add_8", 0, 0, {}]]], "name": "conv1d_26"}, {"class_name": "Multiply", "config": {"dtype": "float32", "trainable": true, "name": "multiply_9"}, "inbound_nodes": [[["conv1d_25", 0, 0, {}], ["conv1d_26", 0, 0, {}]]], "name": "multiply_9"}, {"class_name": "Conv1D", "config": {"kernel_initializer": {"class_name": "VarianceScaling", "config": {"distribution": "uniform", "scale": 1.0, "seed": null, "mode": "fan_avg"}}, "name": "conv1d_27", "kernel_constraint": null, "bias_regularizer": null, "bias_constraint": null, "dtype": "float32", "activation": "linear", "trainable": true, "data_format": "channels_last", "filters": 128, "padding": "same", "strides": [1], "dilation_rate": [1], "kernel_regularizer": null, "bias_initializer": {"class_name": "Zeros", "config": {}}, "use_bias": true, "activity_regularizer": null, "kernel_size": [1]}, "inbound_nodes": [[["multiply_9", 0, 0, {}]]], "name": "conv1d_27"}, {"class_name": "Add", "config": {"dtype": "float32", "trainable": true, "name": "add_9"}, "inbound_nodes": [[["add_8", 0, 0, {}], ["conv1d_27", 0, 0, {}]]], "name": "add_9"}, {"class_name": "Conv1D", "config": {"kernel_initializer": {"class_name": "VarianceScaling", "config": {"distribution": "uniform", "scale": 1.0, "seed": null, "mode": "fan_avg"}}, "name": "conv1d_28", "kernel_constraint": null, "bias_regularizer": null, "bias_constraint": null, "dtype": "float32", "activation": "sigmoid", "trainable": true, "data_format": "channels_last", "filters": 32, "padding": "same", "strides": [1], "dilation_rate": [1], "kernel_regularizer": null, "bias_initializer": {"class_name": "Zeros", "config": {}}, "use_bias": true, "activity_regularizer": null, "kernel_size": [2]}, "inbound_nodes": [[["add_9", 0, 0, {}]]], "name": "conv1d_28"}, {"class_name": "Conv1D", "config": {"kernel_initializer": {"class_name": "VarianceScaling", "config": {"distribution": "uniform", "scale": 1.0, "seed": null, "mode": "fan_avg"}}, "name": "conv1d_29", "kernel_constraint": null, "bias_regularizer": null, "bias_constraint": null, "dtype": "float32", "activation": "tanh", "trainable": true, "data_format": "channels_last", "filters": 32, "padding": "same", "strides": [1], "dilation_rate": [1], "kernel_regularizer": null, "bias_initializer": {"class_name": "Zeros", "config": {}}, "use_bias": true, "activity_regularizer": null, "kernel_size": [2]}, "inbound_nodes": [[["add_9", 0, 0, {}]]], "name": "conv1d_29"}, {"class_name": "Multiply", "config": {"dtype": "float32", "trainable": true, "name": "multiply_10"}, "inbound_nodes": [[["conv1d_28", 0, 0, {}], ["conv1d_29", 0, 0, {}]]], "name": "multiply_10"}, {"class_name": "Conv1D", "config": {"kernel_initializer": {"class_name": "VarianceScaling", "config": {"distribution": "uniform", "scale": 1.0, "seed": null, "mode": "fan_avg"}}, "name": "conv1d_30", "kernel_constraint": null, "bias_regularizer": null, "bias_constraint": null, "dtype": "float32", "activation": "linear", "trainable": true, "data_format": "channels_last", "filters": 128, "padding": "same", "strides": [1], "dilation_rate": [1], "kernel_regularizer": null, "bias_initializer": {"class_name": "Zeros", "config": {}}, "use_bias": true, "activity_regularizer": null, "kernel_size": [1]}, "inbound_nodes": [[["multiply_10", 0, 0, {}]]], "name": "conv1d_30"}, {"class_name": "Add", "config": {"dtype": "float32", "trainable": true, "name": "add_10"}, "inbound_nodes": [[["add_9", 0, 0, {}], ["conv1d_30", 0, 0, {}]]], "name": "add_10"}, {"class_name": "Conv1D", "config": {"kernel_initializer": {"class_name": "VarianceScaling", "config": {"distribution": "uniform", "scale": 1.0, "seed": null, "mode": "fan_avg"}}, "name": "conv1d_31", "kernel_constraint": null, "bias_regularizer": null, "bias_constraint": null, "dtype": "float32", "activation": "sigmoid", "trainable": true, "data_format": "channels_last", "filters": 32, "padding": "same", "strides": [1], "dilation_rate": [1], "kernel_regularizer": null, "bias_initializer": {"class_name": "Zeros", "config": {}}, "use_bias": true, "activity_regularizer": null, "kernel_size": [2]}, "inbound_nodes": [[["add_10", 0, 0, {}]]], "name": "conv1d_31"}, {"class_name": "Conv1D", "config": {"kernel_initializer": {"class_name": "VarianceScaling", "config": {"distribution": "uniform", "scale": 1.0, "seed": null, "mode": "fan_avg"}}, "name": "conv1d_32", "kernel_constraint": null, "bias_regularizer": null, "bias_constraint": null, "dtype": "float32", "activation": "tanh", "trainable": true, "data_format": "channels_last", "filters": 32, "padding": "same", "strides": [1], "dilation_rate": [1], "kernel_regularizer": null, "bias_initializer": {"class_name": "Zeros", "config": {}}, "use_bias": true, "activity_regularizer": null, "kernel_size": [2]}, "inbound_nodes": [[["add_10", 0, 0, {}]]], "name": "conv1d_32"}, {"class_name": "Multiply", "config": {"dtype": "float32", "trainable": true, "name": "multiply_11"}, "inbound_nodes": [[["conv1d_31", 0, 0, {}], ["conv1d_32", 0, 0, {}]]], "name": "multiply_11"}, {"class_name": "Conv1D", "config": {"kernel_initializer": {"class_name": "VarianceScaling", "config": {"distribution": "uniform", "scale": 1.0, "seed": null, "mode": "fan_avg"}}, "name": "conv1d_33", "kernel_constraint": null, "bias_regularizer": null, "bias_constraint": null, "dtype": "float32", "activation": "linear", "trainable": true, "data_format": "channels_last", "filters": 128, "padding": "same", "strides": [1], "dilation_rate": [1], "kernel_regularizer": null, "bias_initializer": {"class_name": "Zeros", "config": {}}, "use_bias": true, "activity_regularizer": null, "kernel_size": [1]}, "inbound_nodes": [[["multiply_11", 0, 0, {}]]], "name": "conv1d_33"}, {"class_name": "Add", "config": {"dtype": "float32", "trainable": true, "name": "add_11"}, "inbound_nodes": [[["add_10", 0, 0, {}], ["conv1d_33", 0, 0, {}]]], "name": "add_11"}, {"class_name": "Conv1D", "config": {"kernel_initializer": {"class_name": "VarianceScaling", "config": {"distribution": "uniform", "scale": 1.0, "seed": null, "mode": "fan_avg"}}, "name": "conv1d_34", "kernel_constraint": null, "bias_regularizer": null, "bias_constraint": null, "dtype": "float32", "activation": "sigmoid", "trainable": true, "data_format": "channels_last", "filters": 32, "padding": "same", "strides": [1], "dilation_rate": [1], "kernel_regularizer": null, "bias_initializer": {"class_name": "Zeros", "config": {}}, "use_bias": true, "activity_regularizer": null, "kernel_size": [2]}, "inbound_nodes": [[["add_11", 0, 0, {}]]], "name": "conv1d_34"}, {"class_name": "Conv1D", "config": {"kernel_initializer": {"class_name": "VarianceScaling", "config": {"distribution": "uniform", "scale": 1.0, "seed": null, "mode": "fan_avg"}}, "name": "conv1d_35", "kernel_constraint": null, "bias_regularizer": null, "bias_constraint": null, "dtype": "float32", "activation": "tanh", "trainable": true, "data_format": "channels_last", "filters": 32, "padding": "same", "strides": [1], "dilation_rate": [1], "kernel_regularizer": null, "bias_initializer": {"class_name": "Zeros", "config": {}}, "use_bias": true, "activity_regularizer": null, "kernel_size": [2]}, "inbound_nodes": [[["add_11", 0, 0, {}]]], "name": "conv1d_35"}, {"class_name": "Multiply", "config": {"dtype": "float32", "trainable": true, "name": "multiply_12"}, "inbound_nodes": [[["conv1d_34", 0, 0, {}], ["conv1d_35", 0, 0, {}]]], "name": "multiply_12"}, {"class_name": "Conv1D", "config": {"kernel_initializer": {"class_name": "VarianceScaling", "config": {"distribution": "uniform", "scale": 1.0, "seed": null, "mode": "fan_avg"}}, "name": "conv1d_36", "kernel_constraint": null, "bias_regularizer": null, "bias_constraint": null, "dtype": "float32", "activation": "linear", "trainable": true, "data_format": "channels_last", "filters": 128, "padding": "same", "strides": [1], "dilation_rate": [1], "kernel_regularizer": null, "bias_initializer": {"class_name": "Zeros", "config": {}}, "use_bias": true, "activity_regularizer": null, "kernel_size": [1]}, "inbound_nodes": [[["multiply_12", 0, 0, {}]]], "name": "conv1d_36"}, {"class_name": "Add", "config": {"dtype": "float32", "trainable": true, "name": "add_12"}, "inbound_nodes": [[["add_11", 0, 0, {}], ["conv1d_36", 0, 0, {}]]], "name": "add_12"}, {"class_name": "Conv1D", "config": {"kernel_initializer": {"class_name": "VarianceScaling", "config": {"distribution": "uniform", "scale": 1.0, "seed": null, "mode": "fan_avg"}}, "name": "conv1d_37", "kernel_constraint": null, "bias_regularizer": null, "bias_constraint": null, "dtype": "float32", "activation": "sigmoid", "trainable": true, "data_format": "channels_last", "filters": 32, "padding": "same", "strides": [1], "dilation_rate": [1], "kernel_regularizer": null, "bias_initializer": {"class_name": "Zeros", "config": {}}, "use_bias": true, "activity_regularizer": null, "kernel_size": [2]}, "inbound_nodes": [[["add_12", 0, 0, {}]]], "name": "conv1d_37"}, {"class_name": "Conv1D", "config": {"kernel_initializer": {"class_name": "VarianceScaling", "config": {"distribution": "uniform", "scale": 1.0, "seed": null, "mode": "fan_avg"}}, "name": "conv1d_38", "kernel_constraint": null, "bias_regularizer": null, "bias_constraint": null, "dtype": "float32", "activation": "tanh", "trainable": true, "data_format": "channels_last", "filters": 32, "padding": "same", "strides": [1], "dilation_rate": [1], "kernel_regularizer": null, "bias_initializer": {"class_name": "Zeros", "config": {}}, "use_bias": true, "activity_regularizer": null, "kernel_size": [2]}, "inbound_nodes": [[["add_12", 0, 0, {}]]], "name": "conv1d_38"}, {"class_name": "Multiply", "config": {"dtype": "float32", "trainable": true, "name": "multiply_13"}, "inbound_nodes": [[["conv1d_37", 0, 0, {}], ["conv1d_38", 0, 0, {}]]], "name": "multiply_13"}, {"class_name": "Conv1D", "config": {"kernel_initializer": {"class_name": "VarianceScaling", "config": {"distribution": "uniform", "scale": 1.0, "seed": null, "mode": "fan_avg"}}, "name": "conv1d_39", "kernel_constraint": null, "bias_regularizer": null, "bias_constraint": null, "dtype": "float32", "activation": "linear", "trainable": true, "data_format": "channels_last", "filters": 128, "padding": "same", "strides": [1], "dilation_rate": [1], "kernel_regularizer": null, "bias_initializer": {"class_name": "Zeros", "config": {}}, "use_bias": true, "activity_regularizer": null, "kernel_size": [1]}, "inbound_nodes": [[["multiply_13", 0, 0, {}]]], "name": "conv1d_39"}, {"class_name": "Add", "config": {"dtype": "float32", "trainable": true, "name": "add_13"}, "inbound_nodes": [[["add_12", 0, 0, {}], ["conv1d_39", 0, 0, {}]]], "name": "add_13"}, {"class_name": "Conv1D", "config": {"kernel_initializer": {"class_name": "VarianceScaling", "config": {"distribution": "uniform", "scale": 1.0, "seed": null, "mode": "fan_avg"}}, "name": "conv1d_40", "kernel_constraint": null, "bias_regularizer": null, "bias_constraint": null, "dtype": "float32", "activation": "sigmoid", "trainable": true, "data_format": "channels_last", "filters": 32, "padding": "same", "strides": [1], "dilation_rate": [1], "kernel_regularizer": null, "bias_initializer": {"class_name": "Zeros", "config": {}}, "use_bias": true, "activity_regularizer": null, "kernel_size": [2]}, "inbound_nodes": [[["add_13", 0, 0, {}]]], "name": "conv1d_40"}, {"class_name": "Conv1D", "config": {"kernel_initializer": {"class_name": "VarianceScaling", "config": {"distribution": "uniform", "scale": 1.0, "seed": null, "mode": "fan_avg"}}, "name": "conv1d_41", "kernel_constraint": null, "bias_regularizer": null, "bias_constraint": null, "dtype": "float32", "activation": "tanh", "trainable": true, "data_format": "channels_last", "filters": 32, "padding": "same", "strides": [1], "dilation_rate": [1], "kernel_regularizer": null, "bias_initializer": {"class_name": "Zeros", "config": {}}, "use_bias": true, "activity_regularizer": null, "kernel_size": [2]}, "inbound_nodes": [[["add_13", 0, 0, {}]]], "name": "conv1d_41"}, {"class_name": "Multiply", "config": {"dtype": "float32", "trainable": true, "name": "multiply_14"}, "inbound_nodes": [[["conv1d_40", 0, 0, {}], ["conv1d_41", 0, 0, {}]]], "name": "multiply_14"}, {"class_name": "Conv1D", "config": {"kernel_initializer": {"class_name": "VarianceScaling", "config": {"distribution": "uniform", "scale": 1.0, "seed": null, "mode": "fan_avg"}}, "name": "conv1d_42", "kernel_constraint": null, "bias_regularizer": null, "bias_constraint": null, "dtype": "float32", "activation": "linear", "trainable": true, "data_format": "channels_last", "filters": 128, "padding": "same", "strides": [1], "dilation_rate": [1], "kernel_regularizer": null, "bias_initializer": {"class_name": "Zeros", "config": {}}, "use_bias": true, "activity_regularizer": null, "kernel_size": [1]}, "inbound_nodes": [[["multiply_14", 0, 0, {}]]], "name": "conv1d_42"}, {"class_name": "Add", "config": {"dtype": "float32", "trainable": true, "name": "add_14"}, "inbound_nodes": [[["add_13", 0, 0, {}], ["conv1d_42", 0, 0, {}]]], "name": "add_14"}, {"class_name": "Conv1D", "config": {"kernel_initializer": {"class_name": "VarianceScaling", "config": {"distribution": "uniform", "scale": 1.0, "seed": null, "mode": "fan_avg"}}, "name": "conv1d_43", "kernel_constraint": null, "bias_regularizer": null, "bias_constraint": null, "dtype": "float32", "activation": "sigmoid", "trainable": true, "data_format": "channels_last", "filters": 32, "padding": "same", "strides": [1], "dilation_rate": [1], "kernel_regularizer": null, "bias_initializer": {"class_name": "Zeros", "config": {}}, "use_bias": true, "activity_regularizer": null, "kernel_size": [2]}, "inbound_nodes": [[["add_14", 0, 0, {}]]], "name": "conv1d_43"}, {"class_name": "Conv1D", "config": {"kernel_initializer": {"class_name": "VarianceScaling", "config": {"distribution": "uniform", "scale": 1.0, "seed": null, "mode": "fan_avg"}}, "name": "conv1d_44", "kernel_constraint": null, "bias_regularizer": null, "bias_constraint": null, "dtype": "float32", "activation": "tanh", "trainable": true, "data_format": "channels_last", "filters": 32, "padding": "same", "strides": [1], "dilation_rate": [1], "kernel_regularizer": null, "bias_initializer": {"class_name": "Zeros", "config": {}}, "use_bias": true, "activity_regularizer": null, "kernel_size": [2]}, "inbound_nodes": [[["add_14", 0, 0, {}]]], "name": "conv1d_44"}, {"class_name": "Multiply", "config": {"dtype": "float32", "trainable": true, "name": "multiply_15"}, "inbound_nodes": [[["conv1d_43", 0, 0, {}], ["conv1d_44", 0, 0, {}]]], "name": "multiply_15"}, {"class_name": "Conv1D", "config": {"kernel_initializer": {"class_name": "VarianceScaling", "config": {"distribution": "uniform", "scale": 1.0, "seed": null, "mode": "fan_avg"}}, "name": "conv1d_45", "kernel_constraint": null, "bias_regularizer": null, "bias_constraint": null, "dtype": "float32", "activation": "linear", "trainable": true, "data_format": "channels_last", "filters": 128, "padding": "same", "strides": [1], "dilation_rate": [1], "kernel_regularizer": null, "bias_initializer": {"class_name": "Zeros", "config": {}}, "use_bias": true, "activity_regularizer": null, "kernel_size": [1]}, "inbound_nodes": [[["multiply_15", 0, 0, {}]]], "name": "conv1d_45"}, {"class_name": "Add", "config": {"dtype": "float32", "trainable": true, "name": "add_15"}, "inbound_nodes": [[["add_14", 0, 0, {}], ["conv1d_45", 0, 0, {}]]], "name": "add_15"}, {"class_name": "Conv1D", "config": {"kernel_initializer": {"class_name": "VarianceScaling", "config": {"distribution": "uniform", "scale": 1.0, "seed": null, "mode": "fan_avg"}}, "name": "conv1d_46", "kernel_constraint": null, "bias_regularizer": null, "bias_constraint": null, "dtype": "float32", "activation": "sigmoid", "trainable": true, "data_format": "channels_last", "filters": 32, "padding": "same", "strides": [1], "dilation_rate": [1], "kernel_regularizer": null, "bias_initializer": {"class_name": "Zeros", "config": {}}, "use_bias": true, "activity_regularizer": null, "kernel_size": [2]}, "inbound_nodes": [[["add_15", 0, 0, {}]]], "name": "conv1d_46"}, {"class_name": "Conv1D", "config": {"kernel_initializer": {"class_name": "VarianceScaling", "config": {"distribution": "uniform", "scale": 1.0, "seed": null, "mode": "fan_avg"}}, "name": "conv1d_47", "kernel_constraint": null, "bias_regularizer": null, "bias_constraint": null, "dtype": "float32", "activation": "tanh", "trainable": true, "data_format": "channels_last", "filters": 32, "padding": "same", "strides": [1], "dilation_rate": [1], "kernel_regularizer": null, "bias_initializer": {"class_name": "Zeros", "config": {}}, "use_bias": true, "activity_regularizer": null, "kernel_size": [2]}, "inbound_nodes": [[["add_15", 0, 0, {}]]], "name": "conv1d_47"}, {"class_name": "Multiply", "config": {"dtype": "float32", "trainable": true, "name": "multiply_16"}, "inbound_nodes": [[["conv1d_46", 0, 0, {}], ["conv1d_47", 0, 0, {}]]], "name": "multiply_16"}, {"class_name": "Conv1D", "config": {"kernel_initializer": {"class_name": "VarianceScaling", "config": {"distribution": "uniform", "scale": 1.0, "seed": null, "mode": "fan_avg"}}, "name": "conv1d_48", "kernel_constraint": null, "bias_regularizer": null, "bias_constraint": null, "dtype": "float32", "activation": "linear", "trainable": true, "data_format": "channels_last", "filters": 128, "padding": "same", "strides": [1], "dilation_rate": [1], "kernel_regularizer": null, "bias_initializer": {"class_name": "Zeros", "config": {}}, "use_bias": true, "activity_regularizer": null, "kernel_size": [1]}, "inbound_nodes": [[["multiply_16", 0, 0, {}]]], "name": "conv1d_48"}, {"class_name": "Add", "config": {"dtype": "float32", "trainable": true, "name": "add_16"}, "inbound_nodes": [[["add_15", 0, 0, {}], ["conv1d_48", 0, 0, {}]]], "name": "add_16"}, {"class_name": "Conv1D", "config": {"kernel_initializer": {"class_name": "VarianceScaling", "config": {"distribution": "uniform", "scale": 1.0, "seed": null, "mode": "fan_avg"}}, "name": "conv1d_49", "kernel_constraint": null, "bias_regularizer": null, "bias_constraint": null, "dtype": "float32", "activation": "sigmoid", "trainable": true, "data_format": "channels_last", "filters": 32, "padding": "same", "strides": [1], "dilation_rate": [1], "kernel_regularizer": null, "bias_initializer": {"class_name": "Zeros", "config": {}}, "use_bias": true, "activity_regularizer": null, "kernel_size": [2]}, "inbound_nodes": [[["add_16", 0, 0, {}]]], "name": "conv1d_49"}, {"class_name": "Conv1D", "config": {"kernel_initializer": {"class_name": "VarianceScaling", "config": {"distribution": "uniform", "scale": 1.0, "seed": null, "mode": "fan_avg"}}, "name": "conv1d_50", "kernel_constraint": null, "bias_regularizer": null, "bias_constraint": null, "dtype": "float32", "activation": "tanh", "trainable": true, "data_format": "channels_last", "filters": 32, "padding": "same", "strides": [1], "dilation_rate": [1], "kernel_regularizer": null, "bias_initializer": {"class_name": "Zeros", "config": {}}, "use_bias": true, "activity_regularizer": null, "kernel_size": [2]}, "inbound_nodes": [[["add_16", 0, 0, {}]]], "name": "conv1d_50"}, {"class_name": "Multiply", "config": {"dtype": "float32", "trainable": true, "name": "multiply_17"}, "inbound_nodes": [[["conv1d_49", 0, 0, {}], ["conv1d_50", 0, 0, {}]]], "name": "multiply_17"}, {"class_name": "Conv1D", "config": {"kernel_initializer": {"class_name": "VarianceScaling", "config": {"distribution": "uniform", "scale": 1.0, "seed": null, "mode": "fan_avg"}}, "name": "conv1d_51", "kernel_constraint": null, "bias_regularizer": null, "bias_constraint": null, "dtype": "float32", "activation": "linear", "trainable": true, "data_format": "channels_last", "filters": 128, "padding": "same", "strides": [1], "dilation_rate": [1], "kernel_regularizer": null, "bias_initializer": {"class_name": "Zeros", "config": {}}, "use_bias": true, "activity_regularizer": null, "kernel_size": [1]}, "inbound_nodes": [[["multiply_17", 0, 0, {}]]], "name": "conv1d_51"}, {"class_name": "Add", "config": {"dtype": "float32", "trainable": true, "name": "add_17"}, "inbound_nodes": [[["add_16", 0, 0, {}], ["conv1d_51", 0, 0, {}]]], "name": "add_17"}, {"class_name": "Conv1D", "config": {"kernel_initializer": {"class_name": "VarianceScaling", "config": {"distribution": "uniform", "scale": 1.0, "seed": null, "mode": "fan_avg"}}, "name": "conv1d_52", "kernel_constraint": null, "bias_regularizer": null, "bias_constraint": null, "dtype": "float32", "activation": "sigmoid", "trainable": true, "data_format": "channels_last", "filters": 32, "padding": "same", "strides": [1], "dilation_rate": [1], "kernel_regularizer": null, "bias_initializer": {"class_name": "Zeros", "config": {}}, "use_bias": true, "activity_regularizer": null, "kernel_size": [2]}, "inbound_nodes": [[["add_17", 0, 0, {}]]], "name": "conv1d_52"}, {"class_name": "Conv1D", "config": {"kernel_initializer": {"class_name": "VarianceScaling", "config": {"distribution": "uniform", "scale": 1.0, "seed": null, "mode": "fan_avg"}}, "name": "conv1d_53", "kernel_constraint": null, "bias_regularizer": null, "bias_constraint": null, "dtype": "float32", "activation": "tanh", "trainable": true, "data_format": "channels_last", "filters": 32, "padding": "same", "strides": [1], "dilation_rate": [1], "kernel_regularizer": null, "bias_initializer": {"class_name": "Zeros", "config": {}}, "use_bias": true, "activity_regularizer": null, "kernel_size": [2]}, "inbound_nodes": [[["add_17", 0, 0, {}]]], "name": "conv1d_53"}, {"class_name": "Multiply", "config": {"dtype": "float32", "trainable": true, "name": "multiply_18"}, "inbound_nodes": [[["conv1d_52", 0, 0, {}], ["conv1d_53", 0, 0, {}]]], "name": "multiply_18"}, {"class_name": "Conv1D", "config": {"kernel_initializer": {"class_name": "VarianceScaling", "config": {"distribution": "uniform", "scale": 1.0, "seed": null, "mode": "fan_avg"}}, "name": "conv1d_54", "kernel_constraint": null, "bias_regularizer": null, "bias_constraint": null, "dtype": "float32", "activation": "linear", "trainable": true, "data_format": "channels_last", "filters": 128, "padding": "same", "strides": [1], "dilation_rate": [1], "kernel_regularizer": null, "bias_initializer": {"class_name": "Zeros", "config": {}}, "use_bias": true, "activity_regularizer": null, "kernel_size": [1]}, "inbound_nodes": [[["multiply_18", 0, 0, {}]]], "name": "conv1d_54"}, {"class_name": "Add", "config": {"dtype": "float32", "trainable": true, "name": "add_18"}, "inbound_nodes": [[["add_17", 0, 0, {}], ["conv1d_54", 0, 0, {}]]], "name": "add_18"}, {"class_name": "Conv1D", "config": {"kernel_initializer": {"class_name": "VarianceScaling", "config": {"distribution": "uniform", "scale": 1.0, "seed": null, "mode": "fan_avg"}}, "name": "conv1d_55", "kernel_constraint": null, "bias_regularizer": null, "bias_constraint": null, "dtype": "float32", "activation": "sigmoid", "trainable": true, "data_format": "channels_last", "filters": 32, "padding": "same", "strides": [1], "dilation_rate": [1], "kernel_regularizer": null, "bias_initializer": {"class_name": "Zeros", "config": {}}, "use_bias": true, "activity_regularizer": null, "kernel_size": [2]}, "inbound_nodes": [[["add_18", 0, 0, {}]]], "name": "conv1d_55"}, {"class_name": "Conv1D", "config": {"kernel_initializer": {"class_name": "VarianceScaling", "config": {"distribution": "uniform", "scale": 1.0, "seed": null, "mode": "fan_avg"}}, "name": "conv1d_56", "kernel_constraint": null, "bias_regularizer": null, "bias_constraint": null, "dtype": "float32", "activation": "tanh", "trainable": true, "data_format": "channels_last", "filters": 32, "padding": "same", "strides": [1], "dilation_rate": [1], "kernel_regularizer": null, "bias_initializer": {"class_name": "Zeros", "config": {}}, "use_bias": true, "activity_regularizer": null, "kernel_size": [2]}, "inbound_nodes": [[["add_18", 0, 0, {}]]], "name": "conv1d_56"}, {"class_name": "Multiply", "config": {"dtype": "float32", "trainable": true, "name": "multiply_19"}, "inbound_nodes": [[["conv1d_55", 0, 0, {}], ["conv1d_56", 0, 0, {}]]], "name": "multiply_19"}, {"class_name": "Conv1D", "config": {"kernel_initializer": {"class_name": "VarianceScaling", "config": {"distribution": "uniform", "scale": 1.0, "seed": null, "mode": "fan_avg"}}, "name": "conv1d_57", "kernel_constraint": null, "bias_regularizer": null, "bias_constraint": null, "dtype": "float32", "activation": "linear", "trainable": true, "data_format": "channels_last", "filters": 128, "padding": "same", "strides": [1], "dilation_rate": [1], "kernel_regularizer": null, "bias_initializer": {"class_name": "Zeros", "config": {}}, "use_bias": true, "activity_regularizer": null, "kernel_size": [1]}, "inbound_nodes": [[["multiply_19", 0, 0, {}]]], "name": "conv1d_57"}, {"class_name": "Add", "config": {"dtype": "float32", "trainable": true, "name": "add_19"}, "inbound_nodes": [[["add_18", 0, 0, {}], ["conv1d_57", 0, 0, {}]]], "name": "add_19"}, {"class_name": "Conv1D", "config": {"kernel_initializer": {"class_name": "VarianceScaling", "config": {"distribution": "uniform", "scale": 1.0, "seed": null, "mode": "fan_avg"}}, "name": "conv1d_58", "kernel_constraint": null, "bias_regularizer": null, "bias_constraint": null, "dtype": "float32", "activation": "sigmoid", "trainable": true, "data_format": "channels_last", "filters": 32, "padding": "same", "strides": [1], "dilation_rate": [1], "kernel_regularizer": null, "bias_initializer": {"class_name": "Zeros", "config": {}}, "use_bias": true, "activity_regularizer": null, "kernel_size": [2]}, "inbound_nodes": [[["add_19", 0, 0, {}]]], "name": "conv1d_58"}, {"class_name": "Conv1D", "config": {"kernel_initializer": {"class_name": "VarianceScaling", "config": {"distribution": "uniform", "scale": 1.0, "seed": null, "mode": "fan_avg"}}, "name": "conv1d_59", "kernel_constraint": null, "bias_regularizer": null, "bias_constraint": null, "dtype": "float32", "activation": "tanh", "trainable": true, "data_format": "channels_last", "filters": 32, "padding": "same", "strides": [1], "dilation_rate": [1], "kernel_regularizer": null, "bias_initializer": {"class_name": "Zeros", "config": {}}, "use_bias": true, "activity_regularizer": null, "kernel_size": [2]}, "inbound_nodes": [[["add_19", 0, 0, {}]]], "name": "conv1d_59"}, {"class_name": "Multiply", "config": {"dtype": "float32", "trainable": true, "name": "multiply_20"}, "inbound_nodes": [[["conv1d_58", 0, 0, {}], ["conv1d_59", 0, 0, {}]]], "name": "multiply_20"}, {"class_name": "Conv1D", "config": {"kernel_initializer": {"class_name": "VarianceScaling", "config": {"distribution": "uniform", "scale": 1.0, "seed": null, "mode": "fan_avg"}}, "name": "conv1d_60", "kernel_constraint": null, "bias_regularizer": null, "bias_constraint": null, "dtype": "float32", "activation": "linear", "trainable": true, "data_format": "channels_last", "filters": 128, "padding": "same", "strides": [1], "dilation_rate": [1], "kernel_regularizer": null, "bias_initializer": {"class_name": "Zeros", "config": {}}, "use_bias": true, "activity_regularizer": null, "kernel_size": [1]}, "inbound_nodes": [[["multiply_20", 0, 0, {}]]], "name": "conv1d_60"}, {"class_name": "Add", "config": {"dtype": "float32", "trainable": true, "name": "add_20"}, "inbound_nodes": [[["add_19", 0, 0, {}], ["conv1d_60", 0, 0, {}]]], "name": "add_20"}, {"class_name": "Conv1D", "config": {"kernel_initializer": {"class_name": "VarianceScaling", "config": {"distribution": "uniform", "scale": 1.0, "seed": null, "mode": "fan_avg"}}, "name": "conv1d_61", "kernel_constraint": null, "bias_regularizer": null, "bias_constraint": null, "dtype": "float32", "activation": "sigmoid", "trainable": true, "data_format": "channels_last", "filters": 32, "padding": "same", "strides": [1], "dilation_rate": [1], "kernel_regularizer": null, "bias_initializer": {"class_name": "Zeros", "config": {}}, "use_bias": true, "activity_regularizer": null, "kernel_size": [2]}, "inbound_nodes": [[["add_20", 0, 0, {}]]], "name": "conv1d_61"}, {"class_name": "Conv1D", "config": {"kernel_initializer": {"class_name": "VarianceScaling", "config": {"distribution": "uniform", "scale": 1.0, "seed": null, "mode": "fan_avg"}}, "name": "conv1d_62", "kernel_constraint": null, "bias_regularizer": null, "bias_constraint": null, "dtype": "float32", "activation": "tanh", "trainable": true, "data_format": "channels_last", "filters": 32, "padding": "same", "strides": [1], "dilation_rate": [1], "kernel_regularizer": null, "bias_initializer": {"class_name": "Zeros", "config": {}}, "use_bias": true, "activity_regularizer": null, "kernel_size": [2]}, "inbound_nodes": [[["add_20", 0, 0, {}]]], "name": "conv1d_62"}, {"class_name": "Multiply", "config": {"dtype": "float32", "trainable": true, "name": "multiply_21"}, "inbound_nodes": [[["conv1d_61", 0, 0, {}], ["conv1d_62", 0, 0, {}]]], "name": "multiply_21"}, {"class_name": "Conv1D", "config": {"kernel_initializer": {"class_name": "VarianceScaling", "config": {"distribution": "uniform", "scale": 1.0, "seed": null, "mode": "fan_avg"}}, "name": "conv1d_63", "kernel_constraint": null, "bias_regularizer": null, "bias_constraint": null, "dtype": "float32", "activation": "linear", "trainable": true, "data_format": "channels_last", "filters": 128, "padding": "same", "strides": [1], "dilation_rate": [1], "kernel_regularizer": null, "bias_initializer": {"class_name": "Zeros", "config": {}}, "use_bias": true, "activity_regularizer": null, "kernel_size": [1]}, "inbound_nodes": [[["multiply_21", 0, 0, {}]]], "name": "conv1d_63"}, {"class_name": "Add", "config": {"dtype": "float32", "trainable": true, "name": "add_21"}, "inbound_nodes": [[["add_20", 0, 0, {}], ["conv1d_63", 0, 0, {}]]], "name": "add_21"}, {"class_name": "Conv1D", "config": {"kernel_initializer": {"class_name": "VarianceScaling", "config": {"distribution": "uniform", "scale": 1.0, "seed": null, "mode": "fan_avg"}}, "name": "conv1d_64", "kernel_constraint": null, "bias_regularizer": null, "bias_constraint": null, "dtype": "float32", "activation": "sigmoid", "trainable": true, "data_format": "channels_last", "filters": 32, "padding": "same", "strides": [1], "dilation_rate": [1], "kernel_regularizer": null, "bias_initializer": {"class_name": "Zeros", "config": {}}, "use_bias": true, "activity_regularizer": null, "kernel_size": [2]}, "inbound_nodes": [[["add_21", 0, 0, {}]]], "name": "conv1d_64"}, {"class_name": "Conv1D", "config": {"kernel_initializer": {"class_name": "VarianceScaling", "config": {"distribution": "uniform", "scale": 1.0, "seed": null, "mode": "fan_avg"}}, "name": "conv1d_65", "kernel_constraint": null, "bias_regularizer": null, "bias_constraint": null, "dtype": "float32", "activation": "tanh", "trainable": true, "data_format": "channels_last", "filters": 32, "padding": "same", "strides": [1], "dilation_rate": [1], "kernel_regularizer": null, "bias_initializer": {"class_name": "Zeros", "config": {}}, "use_bias": true, "activity_regularizer": null, "kernel_size": [2]}, "inbound_nodes": [[["add_21", 0, 0, {}]]], "name": "conv1d_65"}, {"class_name": "Multiply", "config": {"dtype": "float32", "trainable": true, "name": "multiply_22"}, "inbound_nodes": [[["conv1d_64", 0, 0, {}], ["conv1d_65", 0, 0, {}]]], "name": "multiply_22"}, {"class_name": "Conv1D", "config": {"kernel_initializer": {"class_name": "VarianceScaling", "config": {"distribution": "uniform", "scale": 1.0, "seed": null, "mode": "fan_avg"}}, "name": "conv1d_66", "kernel_constraint": null, "bias_regularizer": null, "bias_constraint": null, "dtype": "float32", "activation": "linear", "trainable": true, "data_format": "channels_last", "filters": 128, "padding": "same", "strides": [1], "dilation_rate": [1], "kernel_regularizer": null, "bias_initializer": {"class_name": "Zeros", "config": {}}, "use_bias": true, "activity_regularizer": null, "kernel_size": [1]}, "inbound_nodes": [[["multiply_22", 0, 0, {}]]], "name": "conv1d_66"}, {"class_name": "Add", "config": {"dtype": "float32", "trainable": true, "name": "add_22"}, "inbound_nodes": [[["add_21", 0, 0, {}], ["conv1d_66", 0, 0, {}]]], "name": "add_22"}, {"class_name": "Conv1D", "config": {"kernel_initializer": {"class_name": "VarianceScaling", "config": {"distribution": "uniform", "scale": 1.0, "seed": null, "mode": "fan_avg"}}, "name": "conv1d_67", "kernel_constraint": null, "bias_regularizer": null, "bias_constraint": null, "dtype": "float32", "activation": "sigmoid", "trainable": true, "data_format": "channels_last", "filters": 32, "padding": "same", "strides": [1], "dilation_rate": [1], "kernel_regularizer": null, "bias_initializer": {"class_name": "Zeros", "config": {}}, "use_bias": true, "activity_regularizer": null, "kernel_size": [2]}, "inbound_nodes": [[["add_22", 0, 0, {}]]], "name": "conv1d_67"}, {"class_name": "Conv1D", "config": {"kernel_initializer": {"class_name": "VarianceScaling", "config": {"distribution": "uniform", "scale": 1.0, "seed": null, "mode": "fan_avg"}}, "name": "conv1d_68", "kernel_constraint": null, "bias_regularizer": null, "bias_constraint": null, "dtype": "float32", "activation": "tanh", "trainable": true, "data_format": "channels_last", "filters": 32, "padding": "same", "strides": [1], "dilation_rate": [1], "kernel_regularizer": null, "bias_initializer": {"class_name": "Zeros", "config": {}}, "use_bias": true, "activity_regularizer": null, "kernel_size": [2]}, "inbound_nodes": [[["add_22", 0, 0, {}]]], "name": "conv1d_68"}, {"class_name": "Multiply", "config": {"dtype": "float32", "trainable": true, "name": "multiply_23"}, "inbound_nodes": [[["conv1d_67", 0, 0, {}], ["conv1d_68", 0, 0, {}]]], "name": "multiply_23"}, {"class_name": "Conv1D", "config": {"kernel_initializer": {"class_name": "VarianceScaling", "config": {"distribution": "uniform", "scale": 1.0, "seed": null, "mode": "fan_avg"}}, "name": "conv1d_69", "kernel_constraint": null, "bias_regularizer": null, "bias_constraint": null, "dtype": "float32", "activation": "linear", "trainable": true, "data_format": "channels_last", "filters": 128, "padding": "same", "strides": [1], "dilation_rate": [1], "kernel_regularizer": null, "bias_initializer": {"class_name": "Zeros", "config": {}}, "use_bias": true, "activity_regularizer": null, "kernel_size": [1]}, "inbound_nodes": [[["multiply_23", 0, 0, {}]]], "name": "conv1d_69"}, {"class_name": "Add", "config": {"dtype": "float32", "trainable": true, "name": "add_23"}, "inbound_nodes": [[["add_22", 0, 0, {}], ["conv1d_69", 0, 0, {}]]], "name": "add_23"}, {"class_name": "Conv1D", "config": {"kernel_initializer": {"class_name": "VarianceScaling", "config": {"distribution": "uniform", "scale": 1.0, "seed": null, "mode": "fan_avg"}}, "name": "conv1d_70", "kernel_constraint": null, "bias_regularizer": null, "bias_constraint": null, "dtype": "float32", "activation": "sigmoid", "trainable": true, "data_format": "channels_last", "filters": 32, "padding": "same", "strides": [1], "dilation_rate": [1], "kernel_regularizer": null, "bias_initializer": {"class_name": "Zeros", "config": {}}, "use_bias": true, "activity_regularizer": null, "kernel_size": [2]}, "inbound_nodes": [[["add_23", 0, 0, {}]]], "name": "conv1d_70"}, {"class_name": "Conv1D", "config": {"kernel_initializer": {"class_name": "VarianceScaling", "config": {"distribution": "uniform", "scale": 1.0, "seed": null, "mode": "fan_avg"}}, "name": "conv1d_71", "kernel_constraint": null, "bias_regularizer": null, "bias_constraint": null, "dtype": "float32", "activation": "tanh", "trainable": true, "data_format": "channels_last", "filters": 32, "padding": "same", "strides": [1], "dilation_rate": [1], "kernel_regularizer": null, "bias_initializer": {"class_name": "Zeros", "config": {}}, "use_bias": true, "activity_regularizer": null, "kernel_size": [2]}, "inbound_nodes": [[["add_23", 0, 0, {}]]], "name": "conv1d_71"}, {"class_name": "Multiply", "config": {"dtype": "float32", "trainable": true, "name": "multiply_24"}, "inbound_nodes": [[["conv1d_70", 0, 0, {}], ["conv1d_71", 0, 0, {}]]], "name": "multiply_24"}, {"class_name": "Conv1D", "config": {"kernel_initializer": {"class_name": "VarianceScaling", "config": {"distribution": "uniform", "scale": 1.0, "seed": null, "mode": "fan_avg"}}, "name": "conv1d_72", "kernel_constraint": null, "bias_regularizer": null, "bias_constraint": null, "dtype": "float32", "activation": "linear", "trainable": true, "data_format": "channels_last", "filters": 128, "padding": "same", "strides": [1], "dilation_rate": [1], "kernel_regularizer": null, "bias_initializer": {"class_name": "Zeros", "config": {}}, "use_bias": true, "activity_regularizer": null, "kernel_size": [1]}, "inbound_nodes": [[["multiply_24", 0, 0, {}]]], "name": "conv1d_72"}, {"class_name": "Add", "config": {"dtype": "float32", "trainable": true, "name": "add_24"}, "inbound_nodes": [[["add_23", 0, 0, {}], ["conv1d_72", 0, 0, {}]]], "name": "add_24"}, {"class_name": "Conv1D", "config": {"kernel_initializer": {"class_name": "VarianceScaling", "config": {"distribution": "uniform", "scale": 1.0, "seed": null, "mode": "fan_avg"}}, "name": "conv1d_73", "kernel_constraint": null, "bias_regularizer": null, "bias_constraint": null, "dtype": "float32", "activation": "sigmoid", "trainable": true, "data_format": "channels_last", "filters": 32, "padding": "same", "strides": [1], "dilation_rate": [1], "kernel_regularizer": null, "bias_initializer": {"class_name": "Zeros", "config": {}}, "use_bias": true, "activity_regularizer": null, "kernel_size": [2]}, "inbound_nodes": [[["add_24", 0, 0, {}]]], "name": "conv1d_73"}, {"class_name": "Conv1D", "config": {"kernel_initializer": {"class_name": "VarianceScaling", "config": {"distribution": "uniform", "scale": 1.0, "seed": null, "mode": "fan_avg"}}, "name": "conv1d_74", "kernel_constraint": null, "bias_regularizer": null, "bias_constraint": null, "dtype": "float32", "activation": "tanh", "trainable": true, "data_format": "channels_last", "filters": 32, "padding": "same", "strides": [1], "dilation_rate": [1], "kernel_regularizer": null, "bias_initializer": {"class_name": "Zeros", "config": {}}, "use_bias": true, "activity_regularizer": null, "kernel_size": [2]}, "inbound_nodes": [[["add_24", 0, 0, {}]]], "name": "conv1d_74"}, {"class_name": "Multiply", "config": {"dtype": "float32", "trainable": true, "name": "multiply_25"}, "inbound_nodes": [[["conv1d_73", 0, 0, {}], ["conv1d_74", 0, 0, {}]]], "name": "multiply_25"}, {"class_name": "Conv1D", "config": {"kernel_initializer": {"class_name": "VarianceScaling", "config": {"distribution": "uniform", "scale": 1.0, "seed": null, "mode": "fan_avg"}}, "name": "conv1d_75", "kernel_constraint": null, "bias_regularizer": null, "bias_constraint": null, "dtype": "float32", "activation": "linear", "trainable": true, "data_format": "channels_last", "filters": 128, "padding": "same", "strides": [1], "dilation_rate": [1], "kernel_regularizer": null, "bias_initializer": {"class_name": "Zeros", "config": {}}, "use_bias": true, "activity_regularizer": null, "kernel_size": [1]}, "inbound_nodes": [[["multiply_25", 0, 0, {}]]], "name": "conv1d_75"}, {"class_name": "Add", "config": {"dtype": "float32", "trainable": true, "name": "add_25"}, "inbound_nodes": [[["add_24", 0, 0, {}], ["conv1d_75", 0, 0, {}]]], "name": "add_25"}, {"class_name": "Conv1D", "config": {"kernel_initializer": {"class_name": "VarianceScaling", "config": {"distribution": "uniform", "scale": 1.0, "seed": null, "mode": "fan_avg"}}, "name": "conv1d_76", "kernel_constraint": null, "bias_regularizer": null, "bias_constraint": null, "dtype": "float32", "activation": "sigmoid", "trainable": true, "data_format": "channels_last", "filters": 32, "padding": "same", "strides": [1], "dilation_rate": [1], "kernel_regularizer": null, "bias_initializer": {"class_name": "Zeros", "config": {}}, "use_bias": true, "activity_regularizer": null, "kernel_size": [2]}, "inbound_nodes": [[["add_25", 0, 0, {}]]], "name": "conv1d_76"}, {"class_name": "Conv1D", "config": {"kernel_initializer": {"class_name": "VarianceScaling", "config": {"distribution": "uniform", "scale": 1.0, "seed": null, "mode": "fan_avg"}}, "name": "conv1d_77", "kernel_constraint": null, "bias_regularizer": null, "bias_constraint": null, "dtype": "float32", "activation": "tanh", "trainable": true, "data_format": "channels_last", "filters": 32, "padding": "same", "strides": [1], "dilation_rate": [1], "kernel_regularizer": null, "bias_initializer": {"class_name": "Zeros", "config": {}}, "use_bias": true, "activity_regularizer": null, "kernel_size": [2]}, "inbound_nodes": [[["add_25", 0, 0, {}]]], "name": "conv1d_77"}, {"class_name": "Multiply", "config": {"dtype": "float32", "trainable": true, "name": "multiply_26"}, "inbound_nodes": [[["conv1d_76", 0, 0, {}], ["conv1d_77", 0, 0, {}]]], "name": "multiply_26"}, {"class_name": "Conv1D", "config": {"kernel_initializer": {"class_name": "VarianceScaling", "config": {"distribution": "uniform", "scale": 1.0, "seed": null, "mode": "fan_avg"}}, "name": "conv1d_78", "kernel_constraint": null, "bias_regularizer": null, "bias_constraint": null, "dtype": "float32", "activation": "linear", "trainable": true, "data_format": "channels_last", "filters": 128, "padding": "same", "strides": [1], "dilation_rate": [1], "kernel_regularizer": null, "bias_initializer": {"class_name": "Zeros", "config": {}}, "use_bias": true, "activity_regularizer": null, "kernel_size": [1]}, "inbound_nodes": [[["multiply_26", 0, 0, {}]]], "name": "conv1d_78"}, {"class_name": "Add", "config": {"dtype": "float32", "trainable": true, "name": "add_26"}, "inbound_nodes": [[["add_25", 0, 0, {}], ["conv1d_78", 0, 0, {}]]], "name": "add_26"}, {"class_name": "Conv1D", "config": {"kernel_initializer": {"class_name": "VarianceScaling", "config": {"distribution": "uniform", "scale": 1.0, "seed": null, "mode": "fan_avg"}}, "name": "conv1d_79", "kernel_constraint": null, "bias_regularizer": null, "bias_constraint": null, "dtype": "float32", "activation": "sigmoid", "trainable": true, "data_format": "channels_last", "filters": 32, "padding": "same", "strides": [1], "dilation_rate": [1], "kernel_regularizer": null, "bias_initializer": {"class_name": "Zeros", "config": {}}, "use_bias": true, "activity_regularizer": null, "kernel_size": [2]}, "inbound_nodes": [[["add_26", 0, 0, {}]]], "name": "conv1d_79"}, {"class_name": "Conv1D", "config": {"kernel_initializer": {"class_name": "VarianceScaling", "config": {"distribution": "uniform", "scale": 1.0, "seed": null, "mode": "fan_avg"}}, "name": "conv1d_80", "kernel_constraint": null, "bias_regularizer": null, "bias_constraint": null, "dtype": "float32", "activation": "tanh", "trainable": true, "data_format": "channels_last", "filters": 32, "padding": "same", "strides": [1], "dilation_rate": [1], "kernel_regularizer": null, "bias_initializer": {"class_name": "Zeros", "config": {}}, "use_bias": true, "activity_regularizer": null, "kernel_size": [2]}, "inbound_nodes": [[["add_26", 0, 0, {}]]], "name": "conv1d_80"}, {"class_name": "Multiply", "config": {"dtype": "float32", "trainable": true, "name": "multiply_27"}, "inbound_nodes": [[["conv1d_79", 0, 0, {}], ["conv1d_80", 0, 0, {}]]], "name": "multiply_27"}, {"class_name": "Conv1D", "config": {"kernel_initializer": {"class_name": "VarianceScaling", "config": {"distribution": "uniform", "scale": 1.0, "seed": null, "mode": "fan_avg"}}, "name": "conv1d_81", "kernel_constraint": null, "bias_regularizer": null, "bias_constraint": null, "dtype": "float32", "activation": "linear", "trainable": true, "data_format": "channels_last", "filters": 128, "padding": "same", "strides": [1], "dilation_rate": [1], "kernel_regularizer": null, "bias_initializer": {"class_name": "Zeros", "config": {}}, "use_bias": true, "activity_regularizer": null, "kernel_size": [1]}, "inbound_nodes": [[["multiply_27", 0, 0, {}]]], "name": "conv1d_81"}, {"class_name": "Add", "config": {"dtype": "float32", "trainable": true, "name": "add_27"}, "inbound_nodes": [[["add_26", 0, 0, {}], ["conv1d_81", 0, 0, {}]]], "name": "add_27"}, {"class_name": "Conv1D", "config": {"kernel_initializer": {"class_name": "VarianceScaling", "config": {"distribution": "uniform", "scale": 1.0, "seed": null, "mode": "fan_avg"}}, "name": "conv1d_82", "kernel_constraint": null, "bias_regularizer": null, "bias_constraint": null, "dtype": "float32", "activation": "sigmoid", "trainable": true, "data_format": "channels_last", "filters": 32, "padding": "same", "strides": [1], "dilation_rate": [1], "kernel_regularizer": null, "bias_initializer": {"class_name": "Zeros", "config": {}}, "use_bias": true, "activity_regularizer": null, "kernel_size": [2]}, "inbound_nodes": [[["add_27", 0, 0, {}]]], "name": "conv1d_82"}, {"class_name": "Conv1D", "config": {"kernel_initializer": {"class_name": "VarianceScaling", "config": {"distribution": "uniform", "scale": 1.0, "seed": null, "mode": "fan_avg"}}, "name": "conv1d_83", "kernel_constraint": null, "bias_regularizer": null, "bias_constraint": null, "dtype": "float32", "activation": "tanh", "trainable": true, "data_format": "channels_last", "filters": 32, "padding": "same", "strides": [1], "dilation_rate": [1], "kernel_regularizer": null, "bias_initializer": {"class_name": "Zeros", "config": {}}, "use_bias": true, "activity_regularizer": null, "kernel_size": [2]}, "inbound_nodes": [[["add_27", 0, 0, {}]]], "name": "conv1d_83"}, {"class_name": "Multiply", "config": {"dtype": "float32", "trainable": true, "name": "multiply_28"}, "inbound_nodes": [[["conv1d_82", 0, 0, {}], ["conv1d_83", 0, 0, {}]]], "name": "multiply_28"}, {"class_name": "Conv1D", "config": {"kernel_initializer": {"class_name": "VarianceScaling", "config": {"distribution": "uniform", "scale": 1.0, "seed": null, "mode": "fan_avg"}}, "name": "conv1d_84", "kernel_constraint": null, "bias_regularizer": null, "bias_constraint": null, "dtype": "float32", "activation": "linear", "trainable": true, "data_format": "channels_last", "filters": 128, "padding": "same", "strides": [1], "dilation_rate": [1], "kernel_regularizer": null, "bias_initializer": {"class_name": "Zeros", "config": {}}, "use_bias": true, "activity_regularizer": null, "kernel_size": [1]}, "inbound_nodes": [[["multiply_28", 0, 0, {}]]], "name": "conv1d_84"}, {"class_name": "Add", "config": {"dtype": "float32", "trainable": true, "name": "add_28"}, "inbound_nodes": [[["add_27", 0, 0, {}], ["conv1d_84", 0, 0, {}]]], "name": "add_28"}, {"class_name": "Conv1D", "config": {"kernel_initializer": {"class_name": "VarianceScaling", "config": {"distribution": "uniform", "scale": 1.0, "seed": null, "mode": "fan_avg"}}, "name": "conv1d_85", "kernel_constraint": null, "bias_regularizer": null, "bias_constraint": null, "dtype": "float32", "activation": "sigmoid", "trainable": true, "data_format": "channels_last", "filters": 32, "padding": "same", "strides": [1], "dilation_rate": [1], "kernel_regularizer": null, "bias_initializer": {"class_name": "Zeros", "config": {}}, "use_bias": true, "activity_regularizer": null, "kernel_size": [2]}, "inbound_nodes": [[["add_28", 0, 0, {}]]], "name": "conv1d_85"}, {"class_name": "Conv1D", "config": {"kernel_initializer": {"class_name": "VarianceScaling", "config": {"distribution": "uniform", "scale": 1.0, "seed": null, "mode": "fan_avg"}}, "name": "conv1d_86", "kernel_constraint": null, "bias_regularizer": null, "bias_constraint": null, "dtype": "float32", "activation": "tanh", "trainable": true, "data_format": "channels_last", "filters": 32, "padding": "same", "strides": [1], "dilation_rate": [1], "kernel_regularizer": null, "bias_initializer": {"class_name": "Zeros", "config": {}}, "use_bias": true, "activity_regularizer": null, "kernel_size": [2]}, "inbound_nodes": [[["add_28", 0, 0, {}]]], "name": "conv1d_86"}, {"class_name": "Multiply", "config": {"dtype": "float32", "trainable": true, "name": "multiply_29"}, "inbound_nodes": [[["conv1d_85", 0, 0, {}], ["conv1d_86", 0, 0, {}]]], "name": "multiply_29"}, {"class_name": "Conv1D", "config": {"kernel_initializer": {"class_name": "VarianceScaling", "config": {"distribution": "uniform", "scale": 1.0, "seed": null, "mode": "fan_avg"}}, "name": "conv1d_87", "kernel_constraint": null, "bias_regularizer": null, "bias_constraint": null, "dtype": "float32", "activation": "linear", "trainable": true, "data_format": "channels_last", "filters": 128, "padding": "same", "strides": [1], "dilation_rate": [1], "kernel_regularizer": null, "bias_initializer": {"class_name": "Zeros", "config": {}}, "use_bias": true, "activity_regularizer": null, "kernel_size": [1]}, "inbound_nodes": [[["multiply_29", 0, 0, {}]]], "name": "conv1d_87"}, {"class_name": "Add", "config": {"dtype": "float32", "trainable": true, "name": "add_29"}, "inbound_nodes": [[["add_28", 0, 0, {}], ["conv1d_87", 0, 0, {}]]], "name": "add_29"}, {"class_name": "Conv1D", "config": {"kernel_initializer": {"class_name": "VarianceScaling", "config": {"distribution": "uniform", "scale": 1.0, "seed": null, "mode": "fan_avg"}}, "name": "conv1d_88", "kernel_constraint": null, "bias_regularizer": null, "bias_constraint": null, "dtype": "float32", "activation": "sigmoid", "trainable": true, "data_format": "channels_last", "filters": 32, "padding": "same", "strides": [1], "dilation_rate": [1], "kernel_regularizer": null, "bias_initializer": {"class_name": "Zeros", "config": {}}, "use_bias": true, "activity_regularizer": null, "kernel_size": [2]}, "inbound_nodes": [[["add_29", 0, 0, {}]]], "name": "conv1d_88"}, {"class_name": "Conv1D", "config": {"kernel_initializer": {"class_name": "VarianceScaling", "config": {"distribution": "uniform", "scale": 1.0, "seed": null, "mode": "fan_avg"}}, "name": "conv1d_89", "kernel_constraint": null, "bias_regularizer": null, "bias_constraint": null, "dtype": "float32", "activation": "tanh", "trainable": true, "data_format": "channels_last", "filters": 32, "padding": "same", "strides": [1], "dilation_rate": [1], "kernel_regularizer": null, "bias_initializer": {"class_name": "Zeros", "config": {}}, "use_bias": true, "activity_regularizer": null, "kernel_size": [2]}, "inbound_nodes": [[["add_29", 0, 0, {}]]], "name": "conv1d_89"}, {"class_name": "Multiply", "config": {"dtype": "float32", "trainable": true, "name": "multiply_30"}, "inbound_nodes": [[["conv1d_88", 0, 0, {}], ["conv1d_89", 0, 0, {}]]], "name": "multiply_30"}, {"class_name": "Conv1D", "config": {"kernel_initializer": {"class_name": "VarianceScaling", "config": {"distribution": "uniform", "scale": 1.0, "seed": null, "mode": "fan_avg"}}, "name": "conv1d_90", "kernel_constraint": null, "bias_regularizer": null, "bias_constraint": null, "dtype": "float32", "activation": "linear", "trainable": true, "data_format": "channels_last", "filters": 128, "padding": "same", "strides": [1], "dilation_rate": [1], "kernel_regularizer": null, "bias_initializer": {"class_name": "Zeros", "config": {}}, "use_bias": true, "activity_regularizer": null, "kernel_size": [1]}, "inbound_nodes": [[["multiply_30", 0, 0, {}]]], "name": "conv1d_90"}, {"class_name": "Add", "config": {"dtype": "float32", "trainable": true, "name": "add_30"}, "inbound_nodes": [[["add_29", 0, 0, {}], ["conv1d_90", 0, 0, {}]]], "name": "add_30"}, {"class_name": "Conv1D", "config": {"kernel_initializer": {"class_name": "VarianceScaling", "config": {"distribution": "uniform", "scale": 1.0, "seed": null, "mode": "fan_avg"}}, "name": "conv1d_91", "kernel_constraint": null, "bias_regularizer": null, "bias_constraint": null, "dtype": "float32", "activation": "sigmoid", "trainable": true, "data_format": "channels_last", "filters": 32, "padding": "same", "strides": [1], "dilation_rate": [1], "kernel_regularizer": null, "bias_initializer": {"class_name": "Zeros", "config": {}}, "use_bias": true, "activity_regularizer": null, "kernel_size": [2]}, "inbound_nodes": [[["add_30", 0, 0, {}]]], "name": "conv1d_91"}, {"class_name": "Conv1D", "config": {"kernel_initializer": {"class_name": "VarianceScaling", "config": {"distribution": "uniform", "scale": 1.0, "seed": null, "mode": "fan_avg"}}, "name": "conv1d_92", "kernel_constraint": null, "bias_regularizer": null, "bias_constraint": null, "dtype": "float32", "activation": "tanh", "trainable": true, "data_format": "channels_last", "filters": 32, "padding": "same", "strides": [1], "dilation_rate": [1], "kernel_regularizer": null, "bias_initializer": {"class_name": "Zeros", "config": {}}, "use_bias": true, "activity_regularizer": null, "kernel_size": [2]}, "inbound_nodes": [[["add_30", 0, 0, {}]]], "name": "conv1d_92"}, {"class_name": "Multiply", "config": {"dtype": "float32", "trainable": true, "name": "multiply_31"}, "inbound_nodes": [[["conv1d_91", 0, 0, {}], ["conv1d_92", 0, 0, {}]]], "name": "multiply_31"}, {"class_name": "Conv1D", "config": {"kernel_initializer": {"class_name": "VarianceScaling", "config": {"distribution": "uniform", "scale": 1.0, "seed": null, "mode": "fan_avg"}}, "name": "conv1d_93", "kernel_constraint": null, "bias_regularizer": null, "bias_constraint": null, "dtype": "float32", "activation": "linear", "trainable": true, "data_format": "channels_last", "filters": 128, "padding": "same", "strides": [1], "dilation_rate": [1], "kernel_regularizer": null, "bias_initializer": {"class_name": "Zeros", "config": {}}, "use_bias": true, "activity_regularizer": null, "kernel_size": [1]}, "inbound_nodes": [[["multiply_31", 0, 0, {}]]], "name": "conv1d_93"}, {"class_name": "Add", "config": {"dtype": "float32", "trainable": true, "name": "add_31"}, "inbound_nodes": [[["add_30", 0, 0, {}], ["conv1d_93", 0, 0, {}]]], "name": "add_31"}, {"class_name": "Conv1D", "config": {"kernel_initializer": {"class_name": "VarianceScaling", "config": {"distribution": "uniform", "scale": 1.0, "seed": null, "mode": "fan_avg"}}, "name": "conv1d_94", "kernel_constraint": null, "bias_regularizer": null, "bias_constraint": null, "dtype": "float32", "activation": "sigmoid", "trainable": true, "data_format": "channels_last", "filters": 32, "padding": "same", "strides": [1], "dilation_rate": [1], "kernel_regularizer": null, "bias_initializer": {"class_name": "Zeros", "config": {}}, "use_bias": true, "activity_regularizer": null, "kernel_size": [2]}, "inbound_nodes": [[["add_31", 0, 0, {}]]], "name": "conv1d_94"}, {"class_name": "Conv1D", "config": {"kernel_initializer": {"class_name": "VarianceScaling", "config": {"distribution": "uniform", "scale": 1.0, "seed": null, "mode": "fan_avg"}}, "name": "conv1d_95", "kernel_constraint": null, "bias_regularizer": null, "bias_constraint": null, "dtype": "float32", "activation": "tanh", "trainable": true, "data_format": "channels_last", "filters": 32, "padding": "same", "strides": [1], "dilation_rate": [1], "kernel_regularizer": null, "bias_initializer": {"class_name": "Zeros", "config": {}}, "use_bias": true, "activity_regularizer": null, "kernel_size": [2]}, "inbound_nodes": [[["add_31", 0, 0, {}]]], "name": "conv1d_95"}, {"class_name": "Multiply", "config": {"dtype": "float32", "trainable": true, "name": "multiply_32"}, "inbound_nodes": [[["conv1d_94", 0, 0, {}], ["conv1d_95", 0, 0, {}]]], "name": "multiply_32"}, {"class_name": "Conv1D", "config": {"kernel_initializer": {"class_name": "VarianceScaling", "config": {"distribution": "uniform", "scale": 1.0, "seed": null, "mode": "fan_avg"}}, "name": "conv1d_96", "kernel_constraint": null, "bias_regularizer": null, "bias_constraint": null, "dtype": "float32", "activation": "linear", "trainable": true, "data_format": "channels_last", "filters": 128, "padding": "same", "strides": [1], "dilation_rate": [1], "kernel_regularizer": null, "bias_initializer": {"class_name": "Zeros", "config": {}}, "use_bias": true, "activity_regularizer": null, "kernel_size": [1]}, "inbound_nodes": [[["multiply_32", 0, 0, {}]]], "name": "conv1d_96"}, {"class_name": "Add", "config": {"dtype": "float32", "trainable": true, "name": "add_32"}, "inbound_nodes": [[["add_31", 0, 0, {}], ["conv1d_96", 0, 0, {}]]], "name": "add_32"}, {"class_name": "Conv1D", "config": {"kernel_initializer": {"class_name": "VarianceScaling", "config": {"distribution": "uniform", "scale": 1.0, "seed": null, "mode": "fan_avg"}}, "name": "conv1d_97", "kernel_constraint": null, "bias_regularizer": null, "bias_constraint": null, "dtype": "float32", "activation": "sigmoid", "trainable": true, "data_format": "channels_last", "filters": 32, "padding": "same", "strides": [1], "dilation_rate": [1], "kernel_regularizer": null, "bias_initializer": {"class_name": "Zeros", "config": {}}, "use_bias": true, "activity_regularizer": null, "kernel_size": [2]}, "inbound_nodes": [[["add_32", 0, 0, {}]]], "name": "conv1d_97"}, {"class_name": "Conv1D", "config": {"kernel_initializer": {"class_name": "VarianceScaling", "config": {"distribution": "uniform", "scale": 1.0, "seed": null, "mode": "fan_avg"}}, "name": "conv1d_98", "kernel_constraint": null, "bias_regularizer": null, "bias_constraint": null, "dtype": "float32", "activation": "tanh", "trainable": true, "data_format": "channels_last", "filters": 32, "padding": "same", "strides": [1], "dilation_rate": [1], "kernel_regularizer": null, "bias_initializer": {"class_name": "Zeros", "config": {}}, "use_bias": true, "activity_regularizer": null, "kernel_size": [2]}, "inbound_nodes": [[["add_32", 0, 0, {}]]], "name": "conv1d_98"}, {"class_name": "Multiply", "config": {"dtype": "float32", "trainable": true, "name": "multiply_33"}, "inbound_nodes": [[["conv1d_97", 0, 0, {}], ["conv1d_98", 0, 0, {}]]], "name": "multiply_33"}, {"class_name": "Conv1D", "config": {"kernel_initializer": {"class_name": "VarianceScaling", "config": {"distribution": "uniform", "scale": 1.0, "seed": null, "mode": "fan_avg"}}, "name": "conv1d_99", "kernel_constraint": null, "bias_regularizer": null, "bias_constraint": null, "dtype": "float32", "activation": "linear", "trainable": true, "data_format": "channels_last", "filters": 128, "padding": "same", "strides": [1], "dilation_rate": [1], "kernel_regularizer": null, "bias_initializer": {"class_name": "Zeros", "config": {}}, "use_bias": true, "activity_regularizer": null, "kernel_size": [1]}, "inbound_nodes": [[["multiply_33", 0, 0, {}]]], "name": "conv1d_99"}, {"class_name": "Add", "config": {"dtype": "float32", "trainable": true, "name": "add_33"}, "inbound_nodes": [[["add_32", 0, 0, {}], ["conv1d_99", 0, 0, {}]]], "name": "add_33"}, {"class_name": "Conv1D", "config": {"kernel_initializer": {"class_name": "VarianceScaling", "config": {"distribution": "uniform", "scale": 1.0, "seed": null, "mode": "fan_avg"}}, "name": "conv1d_100", "kernel_constraint": null, "bias_regularizer": null, "bias_constraint": null, "dtype": "float32", "activation": "sigmoid", "trainable": true, "data_format": "channels_last", "filters": 32, "padding": "same", "strides": [1], "dilation_rate": [1], "kernel_regularizer": null, "bias_initializer": {"class_name": "Zeros", "config": {}}, "use_bias": true, "activity_regularizer": null, "kernel_size": [2]}, "inbound_nodes": [[["add_33", 0, 0, {}]]], "name": "conv1d_100"}, {"class_name": "Conv1D", "config": {"kernel_initializer": {"class_name": "VarianceScaling", "config": {"distribution": "uniform", "scale": 1.0, "seed": null, "mode": "fan_avg"}}, "name": "conv1d_101", "kernel_constraint": null, "bias_regularizer": null, "bias_constraint": null, "dtype": "float32", "activation": "tanh", "trainable": true, "data_format": "channels_last", "filters": 32, "padding": "same", "strides": [1], "dilation_rate": [1], "kernel_regularizer": null, "bias_initializer": {"class_name": "Zeros", "config": {}}, "use_bias": true, "activity_regularizer": null, "kernel_size": [2]}, "inbound_nodes": [[["add_33", 0, 0, {}]]], "name": "conv1d_101"}, {"class_name": "Multiply", "config": {"dtype": "float32", "trainable": true, "name": "multiply_34"}, "inbound_nodes": [[["conv1d_100", 0, 0, {}], ["conv1d_101", 0, 0, {}]]], "name": "multiply_34"}, {"class_name": "Conv1D", "config": {"kernel_initializer": {"class_name": "VarianceScaling", "config": {"distribution": "uniform", "scale": 1.0, "seed": null, "mode": "fan_avg"}}, "name": "conv1d_102", "kernel_constraint": null, "bias_regularizer": null, "bias_constraint": null, "dtype": "float32", "activation": "linear", "trainable": true, "data_format": "channels_last", "filters": 128, "padding": "same", "strides": [1], "dilation_rate": [1], "kernel_regularizer": null, "bias_initializer": {"class_name": "Zeros", "config": {}}, "use_bias": true, "activity_regularizer": null, "kernel_size": [1]}, "inbound_nodes": [[["multiply_34", 0, 0, {}]]], "name": "conv1d_102"}, {"class_name": "Add", "config": {"dtype": "float32", "trainable": true, "name": "add_34"}, "inbound_nodes": [[["add_33", 0, 0, {}], ["conv1d_102", 0, 0, {}]]], "name": "add_34"}, {"class_name": "Conv1D", "config": {"kernel_initializer": {"class_name": "VarianceScaling", "config": {"distribution": "uniform", "scale": 1.0, "seed": null, "mode": "fan_avg"}}, "name": "conv1d_103", "kernel_constraint": null, "bias_regularizer": null, "bias_constraint": null, "dtype": "float32", "activation": "sigmoid", "trainable": true, "data_format": "channels_last", "filters": 32, "padding": "same", "strides": [1], "dilation_rate": [1], "kernel_regularizer": null, "bias_initializer": {"class_name": "Zeros", "config": {}}, "use_bias": true, "activity_regularizer": null, "kernel_size": [2]}, "inbound_nodes": [[["add_34", 0, 0, {}]]], "name": "conv1d_103"}, {"class_name": "Conv1D", "config": {"kernel_initializer": {"class_name": "VarianceScaling", "config": {"distribution": "uniform", "scale": 1.0, "seed": null, "mode": "fan_avg"}}, "name": "conv1d_104", "kernel_constraint": null, "bias_regularizer": null, "bias_constraint": null, "dtype": "float32", "activation": "tanh", "trainable": true, "data_format": "channels_last", "filters": 32, "padding": "same", "strides": [1], "dilation_rate": [1], "kernel_regularizer": null, "bias_initializer": {"class_name": "Zeros", "config": {}}, "use_bias": true, "activity_regularizer": null, "kernel_size": [2]}, "inbound_nodes": [[["add_34", 0, 0, {}]]], "name": "conv1d_104"}, {"class_name": "Multiply", "config": {"dtype": "float32", "trainable": true, "name": "multiply_35"}, "inbound_nodes": [[["conv1d_103", 0, 0, {}], ["conv1d_104", 0, 0, {}]]], "name": "multiply_35"}, {"class_name": "Conv1D", "config": {"kernel_initializer": {"class_name": "VarianceScaling", "config": {"distribution": "uniform", "scale": 1.0, "seed": null, "mode": "fan_avg"}}, "name": "conv1d_105", "kernel_constraint": null, "bias_regularizer": null, "bias_constraint": null, "dtype": "float32", "activation": "linear", "trainable": true, "data_format": "channels_last", "filters": 128, "padding": "same", "strides": [1], "dilation_rate": [1], "kernel_regularizer": null, "bias_initializer": {"class_name": "Zeros", "config": {}}, "use_bias": true, "activity_regularizer": null, "kernel_size": [1]}, "inbound_nodes": [[["multiply_35", 0, 0, {}]]], "name": "conv1d_105"}, {"class_name": "Add", "config": {"dtype": "float32", "trainable": true, "name": "add_35"}, "inbound_nodes": [[["add_34", 0, 0, {}], ["conv1d_105", 0, 0, {}]]], "name": "add_35"}, {"class_name": "Conv1D", "config": {"kernel_initializer": {"class_name": "VarianceScaling", "config": {"distribution": "uniform", "scale": 1.0, "seed": null, "mode": "fan_avg"}}, "name": "conv1d_106", "kernel_constraint": null, "bias_regularizer": null, "bias_constraint": null, "dtype": "float32", "activation": "sigmoid", "trainable": true, "data_format": "channels_last", "filters": 32, "padding": "same", "strides": [1], "dilation_rate": [1], "kernel_regularizer": null, "bias_initializer": {"class_name": "Zeros", "config": {}}, "use_bias": true, "activity_regularizer": null, "kernel_size": [2]}, "inbound_nodes": [[["add_35", 0, 0, {}]]], "name": "conv1d_106"}, {"class_name": "Conv1D", "config": {"kernel_initializer": {"class_name": "VarianceScaling", "config": {"distribution": "uniform", "scale": 1.0, "seed": null, "mode": "fan_avg"}}, "name": "conv1d_107", "kernel_constraint": null, "bias_regularizer": null, "bias_constraint": null, "dtype": "float32", "activation": "tanh", "trainable": true, "data_format": "channels_last", "filters": 32, "padding": "same", "strides": [1], "dilation_rate": [1], "kernel_regularizer": null, "bias_initializer": {"class_name": "Zeros", "config": {}}, "use_bias": true, "activity_regularizer": null, "kernel_size": [2]}, "inbound_nodes": [[["add_35", 0, 0, {}]]], "name": "conv1d_107"}, {"class_name": "Multiply", "config": {"dtype": "float32", "trainable": true, "name": "multiply_36"}, "inbound_nodes": [[["conv1d_106", 0, 0, {}], ["conv1d_107", 0, 0, {}]]], "name": "multiply_36"}, {"class_name": "Conv1D", "config": {"kernel_initializer": {"class_name": "VarianceScaling", "config": {"distribution": "uniform", "scale": 1.0, "seed": null, "mode": "fan_avg"}}, "name": "conv1d_108", "kernel_constraint": null, "bias_regularizer": null, "bias_constraint": null, "dtype": "float32", "activation": "linear", "trainable": true, "data_format": "channels_last", "filters": 128, "padding": "same", "strides": [1], "dilation_rate": [1], "kernel_regularizer": null, "bias_initializer": {"class_name": "Zeros", "config": {}}, "use_bias": true, "activity_regularizer": null, "kernel_size": [1]}, "inbound_nodes": [[["multiply_36", 0, 0, {}]]], "name": "conv1d_108"}, {"class_name": "Add", "config": {"dtype": "float32", "trainable": true, "name": "add_36"}, "inbound_nodes": [[["add_35", 0, 0, {}], ["conv1d_108", 0, 0, {}]]], "name": "add_36"}, {"class_name": "Conv1D", "config": {"kernel_initializer": {"class_name": "VarianceScaling", "config": {"distribution": "uniform", "scale": 1.0, "seed": null, "mode": "fan_avg"}}, "name": "conv1d_109", "kernel_constraint": null, "bias_regularizer": null, "bias_constraint": null, "dtype": "float32", "activation": "sigmoid", "trainable": true, "data_format": "channels_last", "filters": 32, "padding": "same", "strides": [1], "dilation_rate": [1], "kernel_regularizer": null, "bias_initializer": {"class_name": "Zeros", "config": {}}, "use_bias": true, "activity_regularizer": null, "kernel_size": [2]}, "inbound_nodes": [[["add_36", 0, 0, {}]]], "name": "conv1d_109"}, {"class_name": "Conv1D", "config": {"kernel_initializer": {"class_name": "VarianceScaling", "config": {"distribution": "uniform", "scale": 1.0, "seed": null, "mode": "fan_avg"}}, "name": "conv1d_110", "kernel_constraint": null, "bias_regularizer": null, "bias_constraint": null, "dtype": "float32", "activation": "tanh", "trainable": true, "data_format": "channels_last", "filters": 32, "padding": "same", "strides": [1], "dilation_rate": [1], "kernel_regularizer": null, "bias_initializer": {"class_name": "Zeros", "config": {}}, "use_bias": true, "activity_regularizer": null, "kernel_size": [2]}, "inbound_nodes": [[["add_36", 0, 0, {}]]], "name": "conv1d_110"}, {"class_name": "Multiply", "config": {"dtype": "float32", "trainable": true, "name": "multiply_37"}, "inbound_nodes": [[["conv1d_109", 0, 0, {}], ["conv1d_110", 0, 0, {}]]], "name": "multiply_37"}, {"class_name": "Conv1D", "config": {"kernel_initializer": {"class_name": "VarianceScaling", "config": {"distribution": "uniform", "scale": 1.0, "seed": null, "mode": "fan_avg"}}, "name": "conv1d_111", "kernel_constraint": null, "bias_regularizer": null, "bias_constraint": null, "dtype": "float32", "activation": "linear", "trainable": true, "data_format": "channels_last", "filters": 128, "padding": "same", "strides": [1], "dilation_rate": [1], "kernel_regularizer": null, "bias_initializer": {"class_name": "Zeros", "config": {}}, "use_bias": true, "activity_regularizer": null, "kernel_size": [1]}, "inbound_nodes": [[["multiply_37", 0, 0, {}]]], "name": "conv1d_111"}, {"class_name": "Add", "config": {"dtype": "float32", "trainable": true, "name": "add_37"}, "inbound_nodes": [[["add_36", 0, 0, {}], ["conv1d_111", 0, 0, {}]]], "name": "add_37"}, {"class_name": "Conv1D", "config": {"kernel_initializer": {"class_name": "VarianceScaling", "config": {"distribution": "uniform", "scale": 1.0, "seed": null, "mode": "fan_avg"}}, "name": "conv1d_112", "kernel_constraint": null, "bias_regularizer": null, "bias_constraint": null, "dtype": "float32", "activation": "sigmoid", "trainable": true, "data_format": "channels_last", "filters": 32, "padding": "same", "strides": [1], "dilation_rate": [1], "kernel_regularizer": null, "bias_initializer": {"class_name": "Zeros", "config": {}}, "use_bias": true, "activity_regularizer": null, "kernel_size": [2]}, "inbound_nodes": [[["add_37", 0, 0, {}]]], "name": "conv1d_112"}, {"class_name": "Conv1D", "config": {"kernel_initializer": {"class_name": "VarianceScaling", "config": {"distribution": "uniform", "scale": 1.0, "seed": null, "mode": "fan_avg"}}, "name": "conv1d_113", "kernel_constraint": null, "bias_regularizer": null, "bias_constraint": null, "dtype": "float32", "activation": "tanh", "trainable": true, "data_format": "channels_last", "filters": 32, "padding": "same", "strides": [1], "dilation_rate": [1], "kernel_regularizer": null, "bias_initializer": {"class_name": "Zeros", "config": {}}, "use_bias": true, "activity_regularizer": null, "kernel_size": [2]}, "inbound_nodes": [[["add_37", 0, 0, {}]]], "name": "conv1d_113"}, {"class_name": "Multiply", "config": {"dtype": "float32", "trainable": true, "name": "multiply_38"}, "inbound_nodes": [[["conv1d_112", 0, 0, {}], ["conv1d_113", 0, 0, {}]]], "name": "multiply_38"}, {"class_name": "Conv1D", "config": {"kernel_initializer": {"class_name": "VarianceScaling", "config": {"distribution": "uniform", "scale": 1.0, "seed": null, "mode": "fan_avg"}}, "name": "conv1d_114", "kernel_constraint": null, "bias_regularizer": null, "bias_constraint": null, "dtype": "float32", "activation": "linear", "trainable": true, "data_format": "channels_last", "filters": 128, "padding": "same", "strides": [1], "dilation_rate": [1], "kernel_regularizer": null, "bias_initializer": {"class_name": "Zeros", "config": {}}, "use_bias": true, "activity_regularizer": null, "kernel_size": [1]}, "inbound_nodes": [[["multiply_38", 0, 0, {}]]], "name": "conv1d_114"}, {"class_name": "Add", "config": {"dtype": "float32", "trainable": true, "name": "add_38"}, "inbound_nodes": [[["add_37", 0, 0, {}], ["conv1d_114", 0, 0, {}]]], "name": "add_38"}, {"class_name": "Conv1D", "config": {"kernel_initializer": {"class_name": "VarianceScaling", "config": {"distribution": "uniform", "scale": 1.0, "seed": null, "mode": "fan_avg"}}, "name": "conv1d_115", "kernel_constraint": null, "bias_regularizer": null, "bias_constraint": null, "dtype": "float32", "activation": "sigmoid", "trainable": true, "data_format": "channels_last", "filters": 32, "padding": "same", "strides": [1], "dilation_rate": [1], "kernel_regularizer": null, "bias_initializer": {"class_name": "Zeros", "config": {}}, "use_bias": true, "activity_regularizer": null, "kernel_size": [2]}, "inbound_nodes": [[["add_38", 0, 0, {}]]], "name": "conv1d_115"}, {"class_name": "Conv1D", "config": {"kernel_initializer": {"class_name": "VarianceScaling", "config": {"distribution": "uniform", "scale": 1.0, "seed": null, "mode": "fan_avg"}}, "name": "conv1d_116", "kernel_constraint": null, "bias_regularizer": null, "bias_constraint": null, "dtype": "float32", "activation": "tanh", "trainable": true, "data_format": "channels_last", "filters": 32, "padding": "same", "strides": [1], "dilation_rate": [1], "kernel_regularizer": null, "bias_initializer": {"class_name": "Zeros", "config": {}}, "use_bias": true, "activity_regularizer": null, "kernel_size": [2]}, "inbound_nodes": [[["add_38", 0, 0, {}]]], "name": "conv1d_116"}, {"class_name": "Multiply", "config": {"dtype": "float32", "trainable": true, "name": "multiply_39"}, "inbound_nodes": [[["conv1d_115", 0, 0, {}], ["conv1d_116", 0, 0, {}]]], "name": "multiply_39"}, {"class_name": "Conv1D", "config": {"kernel_initializer": {"class_name": "VarianceScaling", "config": {"distribution": "uniform", "scale": 1.0, "seed": null, "mode": "fan_avg"}}, "name": "conv1d_117", "kernel_constraint": null, "bias_regularizer": null, "bias_constraint": null, "dtype": "float32", "activation": "linear", "trainable": true, "data_format": "channels_last", "filters": 128, "padding": "same", "strides": [1], "dilation_rate": [1], "kernel_regularizer": null, "bias_initializer": {"class_name": "Zeros", "config": {}}, "use_bias": true, "activity_regularizer": null, "kernel_size": [1]}, "inbound_nodes": [[["multiply_39", 0, 0, {}]]], "name": "conv1d_117"}, {"class_name": "Add", "config": {"dtype": "float32", "trainable": true, "name": "add_39"}, "inbound_nodes": [[["add_38", 0, 0, {}], ["conv1d_117", 0, 0, {}]]], "name": "add_39"}, {"class_name": "Conv1D", "config": {"kernel_initializer": {"class_name": "VarianceScaling", "config": {"distribution": "uniform", "scale": 1.0, "seed": null, "mode": "fan_avg"}}, "name": "conv1d_118", "kernel_constraint": null, "bias_regularizer": null, "bias_constraint": null, "dtype": "float32", "activation": "sigmoid", "trainable": true, "data_format": "channels_last", "filters": 32, "padding": "same", "strides": [1], "dilation_rate": [1], "kernel_regularizer": null, "bias_initializer": {"class_name": "Zeros", "config": {}}, "use_bias": true, "activity_regularizer": null, "kernel_size": [2]}, "inbound_nodes": [[["add_39", 0, 0, {}]]], "name": "conv1d_118"}, {"class_name": "Conv1D", "config": {"kernel_initializer": {"class_name": "VarianceScaling", "config": {"distribution": "uniform", "scale": 1.0, "seed": null, "mode": "fan_avg"}}, "name": "conv1d_119", "kernel_constraint": null, "bias_regularizer": null, "bias_constraint": null, "dtype": "float32", "activation": "tanh", "trainable": true, "data_format": "channels_last", "filters": 32, "padding": "same", "strides": [1], "dilation_rate": [1], "kernel_regularizer": null, "bias_initializer": {"class_name": "Zeros", "config": {}}, "use_bias": true, "activity_regularizer": null, "kernel_size": [2]}, "inbound_nodes": [[["add_39", 0, 0, {}]]], "name": "conv1d_119"}, {"class_name": "Multiply", "config": {"dtype": "float32", "trainable": true, "name": "multiply_40"}, "inbound_nodes": [[["conv1d_118", 0, 0, {}], ["conv1d_119", 0, 0, {}]]], "name": "multiply_40"}, {"class_name": "Conv1D", "config": {"kernel_initializer": {"class_name": "VarianceScaling", "config": {"distribution": "uniform", "scale": 1.0, "seed": null, "mode": "fan_avg"}}, "name": "conv1d_120", "kernel_constraint": null, "bias_regularizer": null, "bias_constraint": null, "dtype": "float32", "activation": "linear", "trainable": true, "data_format": "channels_last", "filters": 128, "padding": "same", "strides": [1], "dilation_rate": [1], "kernel_regularizer": null, "bias_initializer": {"class_name": "Zeros", "config": {}}, "use_bias": true, "activity_regularizer": null, "kernel_size": [1]}, "inbound_nodes": [[["multiply_40", 0, 0, {}]]], "name": "conv1d_120"}, {"class_name": "Add", "config": {"dtype": "float32", "trainable": true, "name": "add_41"}, "inbound_nodes": [[["conv1d_3", 0, 0, {}], ["conv1d_6", 0, 0, {}], ["conv1d_9", 0, 0, {}], ["conv1d_12", 0, 0, {}], ["conv1d_15", 0, 0, {}], ["conv1d_18", 0, 0, {}], ["conv1d_21", 0, 0, {}], ["conv1d_24", 0, 0, {}], ["conv1d_27", 0, 0, {}], ["conv1d_30", 0, 0, {}], ["conv1d_33", 0, 0, {}], ["conv1d_36", 0, 0, {}], ["conv1d_39", 0, 0, {}], ["conv1d_42", 0, 0, {}], ["conv1d_45", 0, 0, {}], ["conv1d_48", 0, 0, {}], ["conv1d_51", 0, 0, {}], ["conv1d_54", 0, 0, {}], ["conv1d_57", 0, 0, {}], ["conv1d_60", 0, 0, {}], ["conv1d_63", 0, 0, {}], ["conv1d_66", 0, 0, {}], ["conv1d_69", 0, 0, {}], ["conv1d_72", 0, 0, {}], ["conv1d_75", 0, 0, {}], ["conv1d_78", 0, 0, {}], ["conv1d_81", 0, 0, {}], ["conv1d_84", 0, 0, {}], ["conv1d_87", 0, 0, {}], ["conv1d_90", 0, 0, {}], ["conv1d_93", 0, 0, {}], ["conv1d_96", 0, 0, {}], ["conv1d_99", 0, 0, {}], ["conv1d_102", 0, 0, {}], ["conv1d_105", 0, 0, {}], ["conv1d_108", 0, 0, {}], ["conv1d_111", 0, 0, {}], ["conv1d_114", 0, 0, {}], ["conv1d_117", 0, 0, {}], ["conv1d_120", 0, 0, {}]]], "name": "add_41"}, {"class_name": "Conv1D", "config": {"kernel_initializer": {"class_name": "VarianceScaling", "config": {"distribution": "uniform", "scale": 1.0, "seed": null, "mode": "fan_avg"}}, "name": "conv1d_121", "kernel_constraint": null, "bias_regularizer": null, "bias_constraint": null, "dtype": "float32", "activation": "relu", "trainable": true, "data_format": "channels_last", "filters": 256, "padding": "same", "strides": [1], "dilation_rate": [1], "kernel_regularizer": null, "bias_initializer": {"class_name": "Zeros", "config": {}}, "use_bias": true, "activity_regularizer": null, "kernel_size": [1]}, "inbound_nodes": [[["add_41", 0, 0, {}]]], "name": "conv1d_121"}, {"class_name": "Conv1D", "config": {"kernel_initializer": {"class_name": "VarianceScaling", "config": {"distribution": "uniform", "scale": 1.0, "seed": null, "mode": "fan_avg"}}, "name": "conv1d_122", "kernel_constraint": null, "bias_regularizer": null, "bias_constraint": null, "dtype": "float32", "activation": "relu", "trainable": true, "data_format": "channels_last", "filters": 512, "padding": "same", "strides": [1], "dilation_rate": [1], "kernel_regularizer": null, "bias_initializer": {"class_name": "Zeros", "config": {}}, "use_bias": true, "activity_regularizer": null, "kernel_size": [1]}, "inbound_nodes": [[["conv1d_121", 0, 0, {}]]], "name": "conv1d_122"}, {"class_name": "Conv1D", "config": {"kernel_initializer": {"class_name": "VarianceScaling", "config": {"distribution": "uniform", "scale": 1.0, "seed": null, "mode": "fan_avg"}}, "name": "conv1d_123", "kernel_constraint": null, "bias_regularizer": null, "bias_constraint": null, "dtype": "float32", "activation": "softmax", "trainable": true, "data_format": "channels_last", "filters": 256, "padding": "same", "strides": [1], "dilation_rate": [1], "kernel_regularizer": null, "bias_initializer": {"class_name": "Zeros", "config": {}}, "use_bias": true, "activity_regularizer": null, "kernel_size": [1]}, "inbound_nodes": [[["conv1d_122", 0, 0, {}]]], "name": "conv1d_123"}], "input_layers": [["input_1", 0, 0]], "output_layers": [["conv1d_123", 0, 0]], "name": "model_1"}, "backend": "tensorflow"}